checkpoint_critic.pth (torch_old, 169968 bytes, 5 tensors)

fcs1.weight f4 [256, 33]
00000000: 758c 59bd 3d6c ccbd 60f4 163c 29b2 de3c
00000010: a77b 3fbd 4a4c abbc 2b04 a1bc bf1e 033d
00000020: 26b9 5ebc 6860 3fbc 9bb0 3a3c ec65 443d
00000030: 48f9 2d3d 3301 613d 1640 383d d7f9 0b3c
00000040: b7c2 16bd af79 ae3c 8ed4 653d 5d03 d1bb
00000050: 5751 493d 8539 41bd ec1c d1bc 98ea e7bc
00000060: 73b9 763c c45b ffbc 31bd 933d 8534 1dbd
00000070: 9478 513d 90a7 9dbb 52f2 823d 64d7 69bd
00000080: 3e0b f9bc a86d 45bd b6a0 44bd 2389 52bd
00000090: 8688 6c3d 73ab c339 483e db3d 6097 6d3d
000000a0: 38b9 fe3c acf4 9e3d bf1a 45bd e128 063d
000000b0: 5333 d23c 85a1 33bb 0c23 adbc b933 903d
000000c0: b92f a83c 1acb 983c 0356 223d 0312 ba3b
000000d0: 1d4f 3dbd d597 49bd df13 013d 0086 09bd
000000e0: c94d c93c 4e73 0c3d 4a1f 2fbd c2fe 623d
000000f0: 9d60 103d 2be6 fabc 8267 14bd c72a 38bd
00000100: 14f9 fabc 362c 0d3c 1ce2 893c da62 b0bc
00000110: 0c75 3b3d e727 5abd e5ec 993b a56c f9bc
00000120: 8e7c 973b 3c5e 63bd d5f0 7cbc 6ccb a43d
00000130: 1f17 fabc 411b 43bc 4f58 e93c dd51 123d
00000140: 7987 b83c 9adf 48bd 0ada 713c 73c8 213b
00000150: a40e 35bd 21f9 cbbc c3b4 04bd 5540 3cbd
00000160: 3afb 27bc f7e6 a2bc 800d 543c e576 c93c
00000170: c065 3b3d 79a2 4e3d 2bb1 42bc 1cad 403d
00000180: 7059 8abb 3cb2 3c3d f880 393c 37fd 503d
00000190: 4717 7e3c 7d15 283d 4856 67bd 30cd b53b
000001a0: d02e 863d 4b98 d13b 0ef1 d3bb c1bd abbd
000001b0: 77ff 043d ca37 723c d8d2 6dbc 8218 3a3b
000001c0: a002 2c3d 7c08 54bc a93b eebc e15c bfbd
000001d0: 797d 153c 1cda 3f3d a6d9 3b3c d157 16bc
000001e0: 52d6 8ebd d690 5a3d 5cc2 c738 7d81 533d
000001f0: a2c3 863d c0ca 543c 58ed e6bc eeaf 1f3d
00000200: 2680 61bd 37e4 0f3d c8fc 21bd 22a5 03bc
00000210: b2b8 9bbc 50ee 81bd 2af4 49bc b44f f53c
00000220: 5623 75bd 859d e83c 3047 99bc 1d58 a33c
00000230: 6e64 aebc a8c1 12bd b9bc 14bd fa37 833c
00000240: 12b9 803d e859 a33d eb46 113d 8dee a4bc
00000250: 8504 4c3c c241 ddbc e8b4 043e 5c51 c33c
00000260: 0e9a 26bd d201 6ebd d1be 8cbd 1d25 a23c
00000270: 075a 58bc afbe 93bc e178 38bd 31b4 54bd
00000280: 923b a4bc 8083 713d 986a dc3b 2034 2bbb
00000290: 1d16 0abc 8e66 c0bd f9ad 1dbc c16a c83c
000002a0: 39cd dfbb e128 bcbd 57ca 0bbe 43fe 4ebd
000002b0: 76f1 203d 5e5e a7ba fed1 a7bc 9ae2 f3bc
000002c0: ce4f 20bd a5f7 023d 60a0 a73b 361c 533d
000002d0: 2d48 173b 00a3 533c 2d73 043d f6d7 af3a
000002e0: 9f0c 71bc 8196 183c 1ab8 693d 41d3 18bd
000002f0: 6a7b 6b3d 6ced 353d 799d 873a 9afb b73c
00000300: 9884 a33c 95b2 873d c27d 283d 5b2b 8a3c
00000310: 206c 6cbc 9d43 073c 5860 2ebd c7ac 8dbd
00000320: 1dac 993d cc7b 34bd e9d3 303d d839 74bd
00000330: 2d82 17bd 68e2 333d ead5 3a3d 7c95 95bc
00000340: 2482 c5bc 6e2b 01bd 4788 34bc 2abd 38bd
00000350: 0811 f83c 8c57 1c3d 71dd 1dbd c2ba 093d
00000360: 88ba bc3c b76e a53d 8c0c 94bc a431 bebc
00000370: e250 0d3d ff8e 893d b04b 8cbd 33b5 24bc
00000380: 1505 5ebd 6974 a53c 61d6 f8bc 1a03 263d
00000390: 72b4 1abd 10ec 103d f9d6 9c3d 8a70 113c
000003a0: 07cc 4fbc e691 8539 99de 283d fe81 4fbd
000003b0: c0d1 503d 8cd1 adbd fea6 1f3d 9228 08bd
000003c0: c7a8 9f3d d878 3f3d 6fa3 9b3c 9637 2f3d
000003d0: 9740 273d be68 383d 2f30 09bd fbd5 9bbd
000003e0: eb88 95bd 8f69 f63c c4a3 ff3c 5944 c2bc
000003f0: 7fe9 62bd 99c0 183c 8da3 1bbb 5116 2ebd
-0.053112466 -0.09981582 0.009213537 0.027184563 -0.046748783 -0.0209104 -0.019655308 0.032011744
-0.0135939475 -0.0116807 0.011394645 0.047948763 0.04247406 0.054932784 0.044982992 0.008543453
-0.03680679 0.021298258 0.05611091 -0.0063785748 0.049149837 -0.047173996 -0.025526486 -0.028310105
0.015058863 -0.031171687 0.0721382 -0.038380165 0.051140383 -0.004811235 0.06393875 -0.057090178
-0.030400869 -0.04820028 -0.04800483 -0.051400315 0.057747386 0.00037321038 0.107052386 0.05800569
0.031094179 0.07761511 -0.04812121 0.03275383 0.025659239 -0.0027409506 -0.021134876 0.07041115
0.020530568 0.018651534 0.03963281 0.0056784167 -0.046218026 -0.049217064 0.03151309 -0.033575058
0.024573224 0.03428965 -0.04275445 0.055418737 0.035248388 -0.03062733 -0.036231525 -0.04496267
-0.030636348 0.008616498 0.01683145 -0.021531511 0.04576592 -0.05326071 0.0046974295 -0.030447314
0.0046230024 -0.05550979 -0.015438278 0.08046612 -0.030528603 -0.011908353 0.028484492 0.035722602
0.022525536 -0.049041368 0.014761457 0.0024686127 -0.044203416 -0.024899067 -0.03239895 -0.04595979
-0.010252768 -0.019885523 0.012942672 0.024592826 0.045751333 0.050447915 -0.01188306 0.04704009
-0.0042220876 0.046068415 0.011322252 0.051022734 0.015508479 0.041036118 -0.05647877 0.005548142
0.065518975 0.0063963286 -0.006467945 -0.08385802 0.032470193 0.014783809 -0.014515601 0.0028395955
0.04199469 -0.012941476 -0.029081183 -0.09343887 0.009124153 0.046838865 0.011465466 -0.0091762105
-0.06974472 0.053360783 9.525262e-05 0.05163716 0.06580283 0.0129877925 -0.028189346 0.03898614
-0.055053852 0.035129752 -0.03954771 -0.008034976 -0.019008968 -0.063442826 -0.01232628 0.029945232
-0.059848152 0.028395424 -0.018710703 0.019939477 -0.021288123 -0.035829216 -0.036312792 0.016017903
0.06285299 0.07976133 0.035468023 -0.020133281 0.012452249 -0.027008895 0.12959635 0.023842506
-0.04067426 -0.058107205 -0.06872333 0.019793088 -0.013205058 -0.018035261 -0.045037154 -0.051929656
-0.020047937 0.0589633 0.006726574 -0.0026123598 -0.008428124 -0.09394561 -0.009623998 0.024464967
-0.0068298844 -0.091874845 -0.13651405 -0.05053545 0.039292775 -0.0012769212 -0.020485874 -0.029771138
-0.039138608 0.031974453 0.0051155537 0.051540576 0.0023083792 0.01291728 0.032336403 0.0013415802
-0.014712482 0.009313227 0.05706034 -0.037310842 0.057490744 0.044415876 0.0010346613 0.02245884
0.019960687 0.06625859 0.041135557 0.016866377 -0.014430076 0.008255866 -0.04257235 -0.0691772
0.07503531 -0.044063374 0.043170843 -0.059625477 -0.03698938 0.04391709 0.04561416 -0.018259756
-0.024109907 -0.03153556 -0.011018819 -0.045102276 0.030281559 0.03816943 -0.03854126 0.03362537
0.023038164 0.08077758 -0.018072389 -0.02321703 0.034500964 0.067167275 -0.06850374 -0.010052967
-0.054204065 0.02019711 -0.030375661 0.0405303 -0.037769742 0.035381377 0.0765819 0.008876929
-0.012682921 0.0002547644 0.04122791 -0.05066108 0.050981283 -0.084872335 0.038977616 -0.033241816
0.077958636 0.046746105 0.01899883 0.04277762 0.040833082 0.045021765 -0.033493217 -0.07609173
-0.07301506 0.030079631 0.03120602 -0.023714231 -0.05539846 0.009323263 -0.0023748607 -0.04250175

fcs1.bias f4 [256]
00000000: 22dd 4fbd 8d79 09be 9d31 323e 3036 0abd
00000010: dd85 f63c bf7f cebc d68e a33d badf 803b
00000020: aba7 38bd ec64 123e 5034 4abd 8326 19be
00000030: 7627 8c3d 2344 bdbc 21e1 323c d41f 2ebd
00000040: 7316 08bc 7dd6 1eba d344 00be f10f 6ebc
00000050: 9d84 343d b14d 143e 0a56 113e 229d 9c3d
00000060: 137f debd a8a8 913d 528b 26be 82ae 133e
00000070: e495 353d cfec 1ebe fe0e 003e d6c3 0a3d
00000080: d2e8 ca3d 9693 013e dea6 01bd b926 3e3d
00000090: 8bce e13d 2079 e8bc d704 f7bd 786c 73bd
000000a0: e6b6 773b 1b86 833d 35e3 a0bd 0f93 82bd
000000b0: 7436 27be e593 2ebd 1d1a 4ebd ed4d d03d
000000c0: 8f20 ffbc 2f4c be3d a525 59bd a8f2 1bbb
000000d0: ad43 1fbe 3aa3 2c3e 276f 88bd 12e2 b23b
000000e0: 189c f03d 1a95 0e3d df63 93bb ce16 1dbe
000000f0: d362 b4bc 2214 c43d 70ab c13c c831 cf3d
00000100: e2d5 683a bddf 12be 7969 d7bd eb91 a8bd
00000110: 006a fe3d 859b f0bd 298a e03d 7814 873c
00000120: 5846 6b3d e3c4 1b3e d84f 3d3d 640d e3bd
00000130: e6e8 303e ab42 b8bd 1879 b7bd 4326 98bc
00000140: 5bfc 12bc cb02 fd3c 9506 783d 1c70 d43d
00000150: ead1 a8b9 19b9 143e 7783 1bbe e5a2 143e
00000160: 05ea 8ebd 670c 23be a216 d0bd 2e0f 9b3c
00000170: 9c56 ba3d c252 fc3d a82a 4b3d 880e a83d
00000180: 883e 023e de30 03be 625f b5bd c84f 04be
00000190: 13a8 b5bd 6e6e 99bd d8f3 6bbd a611 26bc
000001a0: 01fa 2fbe 0550 d4bd 03b1 dbbc c1a9 043e
000001b0: 66b6 b43d 6644 2dbe f75d b1ba 6483 d4bc
000001c0: acb4 3cbe 6ce7 0fbe 02fe 8a3b 367c 5cbd
000001d0: 1eaf 083e 1c91 3d3d d3e5 95bd 558f 2d3d
000001e0: 4460 653c 9879 1e3e d233 af3c 53ae a3bd
000001f0: 0394 c3bc 61e5 b5bd 9271 0fbe 2bde e03d
00000200: 90c4 92bd 706c 113e b90a c53d 3e50 b2bd
00000210: 3289 a4bd fdb0 fabc 2558 b33d 759b a63d
00000220: c292 52bd ae3c dd3c 9245 abbc 550c 92bd
00000230: 13f8 1abe e9dc e63c 9a85 fabd 64f1 23bc
00000240: 1357 19be ad4e aabd 9afe b63d e3a1 ea3b
00000250: 67f2 f03c 82ec 673d 2adc 02be a7bd 923d
00000260: cb2a 89bd 7064 e13c 5375 39be 4f98 303e
00000270: 0cca f9bd 410d fa3d e5a8 983b 21a0 8f3c
00000280: d8ee fb3d 154f 0b3e 34f7 ff3c 4872 c0bd
00000290: 882e 0fbe 6646 0b3e 34b1 02be f859 06be
000002a0: fb55 f33d 0588 2f3e 4e60 953b 17c0 303e
000002b0: 0bf5 e03d c57c c5bd 1d73 98bd 859e 8c3d
000002c0: e8cb 783b c824 f9bd 3a00 333e 86a3 27be
000002d0: 9dd2 72bc 547d 3e3e c9b4 abbd a758 48be
000002e0: 5802 fbbb e343 0cbd 927e 16be c664 c23d
000002f0: 22dc c63d c8f5 0a3e 5e2c b33a 6df8 953d
00000300: 00d2 cbbd 70ea cd3d b4b8 933d 750c cd3c
00000310: 685a 873d 71aa c73c 6e60 23be b2f3 1cbe
00000320: 63d5 b33d 02d8 463b 0079 bc3c a399 883d
00000330: d709 143e 18c2 9dbd 074e 7fbd 9f60 92bc
00000340: 7382 53bd 9c88 fe3b db2b 9dbd a768 b8bd
00000350: c3ae 123e 8083 e1bc c652 afbd eb71 0b3d
00000360: f01c 343e 4623 5cbd 4f64 0d3e b267 2abc
00000370: f2fb 823c 4274 a83d e760 013e ee0d 94bd
00000380: 89cf 8c3d 43a5 033e 3426 033e 52e0 31bd
00000390: e4e2 a8bd a4cb e4bb ff2a b6bd d89b c93c
000003a0: 5a91 c1bd 75ae 8a3d 0fd8 4a3b b623 23bd
000003b0: 3c25 ec3d 7060 713d 2576 a33d d214 08be
000003c0: 29bc 02be 1ca1 c2bd b14d 943d 6b86 803d
000003d0: 2e52 9dbd 8221 29bc 81a0 e73d 045a ddbc
000003e0: 1f28 ce3c 5f58 063e b279 2cbe d7af 12be
000003f0: 2968 1ebe 3435 063e fb33 e93d df83 50bd
-0.050747998 -0.13425274 0.17401738 -0.033743083 0.030093128 -0.025207398 0.07986228 0.0039329203
-0.045081776 0.14296311 -0.049366295 -0.14956097 0.06843464 -0.02310378 0.010917933 -0.042510822
-0.008306134 -0.0006059183 -0.12526254 -0.014530168 0.044071782 0.14482762 0.14192978 0.07647158
-0.10864081 0.07112247 -0.16264084 0.14422038 0.0443324 -0.15520023 0.12505719 0.03387817
0.09907688 0.12653956 -0.031653278 0.046423648 0.11025723 -0.02837807 -0.1206147 -0.059429616
0.0037798225 0.06422063 -0.07855836 -0.063757055 -0.16329366 -0.042621512 -0.050317872 0.10171113
-0.031143455 0.092918746 -0.053014416 -0.0023795757 -0.1555316 0.16859141 -0.066618256 0.0054590786
0.117485225 0.034810163 -0.0044979895 -0.1534073 -0.02201978 0.095741525 0.023641318 0.10116917
0.00088819687 -0.14343162 -0.10518164 -0.08230957 0.12422562 -0.11748413 0.10963852 0.016489252
0.057440132 0.15211825 0.046218723 -0.110865384 0.17276344 -0.08997091 -0.08958644 -0.018572932
-0.008971299 0.03088512 0.060553152 0.10372946 -0.00032199855 0.14523734 -0.15186869 0.14515264
-0.069782294 -0.159227 -0.10160567 0.018928137 0.09098551 0.12320472 0.049601227 0.082058966
0.12719166 -0.1281161 -0.088560835 -0.12921059 -0.08869948 -0.07491766 -0.057605594 -0.010136044
-0.17185213 -0.10366825 -0.026817804 0.12955381 0.08823852 -0.16920623 -0.0013532032 -0.025941558
-0.18428296 -0.14053124 0.004241706 -0.053829394 0.13348052 0.046280965 -0.07319226 0.04237302
0.014000002 0.15476072 0.021387015 -0.07992234 -0.023874288 -0.08881641 -0.14008167 0.10979875
-0.071663976 0.14201522 0.09621186 -0.08706711 -0.080339804 -0.030601973 0.087570466 0.0813512
-0.05140949 0.027006473 -0.020907197 -0.071312584 -0.15133695 0.02818151 -0.12232514 -0.0100062825
-0.14974622 -0.083157875 0.0893528 0.0071604117 0.029412461 0.056622036 -0.12779298 0.071650796
-0.06697615 0.027513713 -0.18111162 0.17245601 -0.121967405 0.12209559 0.0046588057 0.01753241
0.12301415 0.13604386 0.031245805 -0.093967974 -0.13982594 0.13601074 -0.1276291 -0.13120258
0.11881634 0.17141731 0.0045585996 0.17260776 0.10984238 -0.096429385 -0.07443831 0.06866173
0.0037963334 -0.121652186 0.17480555 -0.16370973 -0.014820722 0.18602496 -0.083840914 -0.19565068
-0.0076601915 -0.03424443 -0.1469672 0.09491877 0.09709956 0.1357032 0.0013669839 0.07322774
-0.09952164 0.10054481 0.07212964 0.025030354 0.066090405 0.024373265 -0.15954754 -0.15327337
0.08780935 0.0030341153 0.023006916 0.06669929 0.14456879 -0.07703036 -0.062330272 -0.017868338
-0.051638078 0.00776775 -0.076743804 -0.09004336 0.14324479 -0.027528524 -0.0856071 0.034044188
0.17589164 -0.053744577 0.13807796 -0.010400699 0.015989278 0.082252994 0.12634622 -0.072292194
0.06875522 0.12856011 0.12807542 -0.04342682 -0.08246401 -0.0069822837 -0.088949196 0.024610445
-0.09451552 0.06771556 0.0030951535 -0.03982898 0.115305394 0.05892986 0.07981519 -0.13289192
-0.1276709 -0.095033854 0.07241381 0.06275638 -0.0768169 -0.01032293 0.113099106 -0.027020462
0.025165616 0.13119648 -0.16843298 -0.1432489 -0.15469421 0.13106233 0.113868676 -0.050907012

fc2.weight f4 [128, 260]
00000000: 32fa 963d 0a65 103d b59b 0fbc d39c 8cbd
00000010: dd28 24bd ea23 883d 5eb2 9bbc d7d9 5cbd
00000020: 273f cc3a d14b dcbc b4d2 593c ff40 f6bc
00000030: 4779 513d e448 2bbd 6c6c 6f3d 23d4 75bd
00000040: 7701 b2bd decc a33d 0021 b43d 349b 24be
00000050: 7fc1 6f3c bc2c ec3b 70ea b9bb 4063 b53c
00000060: 7482 d3bc 323f 783d 1dbd 973d 2ee4 243d
00000070: a0f7 113d 7013 8cbc b628 ad3d d555 d53d
00000080: fa7b 68bd 5ae4 2fbd 8d7f 393d 3061 373d
00000090: 9f08 c4bc 2f34 b8bd 758e c53c 2627 653d
000000a0: ef99 d73d 9672 853d 89d1 debc 4e7c 2cbc
000000b0: ec59 8d3d ec5e e23c ea1b 3c3c 9146 86bd
000000c0: 2c61 ab3d 2e12 8cbd 10d9 3e3d d1a2 42be
000000d0: 4127 0fbd a132 92bd 0cbf 363d 88ec cabc
000000e0: aeb6 b13c 57bf aebb d313 b5bd 68de 813d
000000f0: 7da9 30b9 299d 223c 5e02 863a 6651 e53c
00000100: 430c 523d 954e e0bc e98f 11bd a5b8 983b
00000110: f633 af3d bf06 a13c 9f31 27b9 0dc8 84bd
00000120: b47b 4ebc e8e6 75bd 07eb 75bd 560d b5bd
00000130: d0cf a6bc 1179 88bd a8ed c9bd c371 1abd
00000140: c61f 83bd 774c 533c c5e5 52bd 4930 653d
00000150: b671 a6bd e3f3 45bd 0b3e ca3c 863d 6a3d
00000160: 6a10 9dbd 9b45 40bd 59bd f4bc 1689 a0bd
00000170: 1c9f 503d 5293 b6bc 3098 b13c f294 84bd
00000180: ab4f a0bc 05af 7c3d 4953 41bd 836f 513d
00000190: c60f 8ebd 3c36 353d 9bba bd3d 3898 0abd
000001a0: fa5a c1bd ed2a 92bd 8979 313d 3126 8dbb
000001b0: 76a8 9cbd 3530 95bd 0df1 af3d 5d6c 05bc
000001c0: 3d4c 6abd 4ea6 d0bc 080b 833c 9990 85bd
000001d0: f35c b43d 9b3a 533d cccd 0d3b 007e 82bd
000001e0: f39a a53d d7a9 343d 8163 983d bf91 abbd
000001f0: 5609 92bc 6925 0dbd 9f90 483c 544f 893c
00000200: a37c 263d b5ed 25bc 258f 26bd d2c6 683c
00000210: d453 ae3c 4b1f 18be 1f1f 5ebb 6597 86bb
00000220: f162 c73c 974f 89bd 9fa6 ab3d 5419 35bd
00000230: d8ce 9cbd 6ba6 0e3d c97b 90bd afef af3d
00000240: 4386 09be 4d4a b63d 7dc1 91bd 771f 803d
00000250: 7ba1 853d c0b2 ae3d 1c6a 97bd 69a8 95bd
00000260: 1b9f 38bd 3198 46bd 8ad3 4b3d 8bac b63d
00000270: ea6d 0f3d 7e36 923b 0b13 6c3d ea01 66bd
00000280: c429 893d 314f 9bbd b480 96bc 1679 023d
00000290: daeb 86bd 9614 403b 31e2 5e3c a254 74bd
000002a0: 5db9 27bc 45f7 3d3d d399 993d 74b3 6b3d
000002b0: 0fbd 71bd 1425 b8bc 835d aa3d 2256 a5bb
000002c0: 0db8 b5bd 887b be3c e6c8 70bd 0012 b9bd
000002d0: 2551 90bd 240e 3bbe e416 a53d 84fe 5abd
000002e0: 7491 4fbd 0d38 acbc 6fa7 bc3c 927a 1dbc
000002f0: 7012 17bd 05cf 4fbd 34ee a3bd 46f9 0dbe
00000300: 3657 a1bd c87b 673c 26ff b73d 1b6d 1e3d
00000310: 6f1d 023c b220 943d a64e ed3c ef0c 6cbc
00000320: c150 64bd e926 4fbd ed7f 963d af30 99bd
00000330: eef1 523d 3fe8 f0bd 4b3c 463c 44b7 7fbd
00000340: 385b 3d3c 04b4 403d 3d1e 67bd cdf1 b0bd
00000350: 453b 87bb 7e40 a83d 239b 1dbd b62c 19bd
00000360: 88ec ad3c 755c 7d3c f028 853b b7ec 8f3c
00000370: 1992 c53d 3a24 bbbc 674c af3d 8b8b 0bbc
00000380: 0c4b 7ebd 9b86 8d3d 1699 ad3c e4d8 8dbd
00000390: b6ee 11bd 70ed 893c 004e 44bc f216 9a3d
000003a0: 16be 53bd 5299 4bbc b2a8 46bc a055 0c3c
000003b0: 9315 73bd e7ae 19bd 89c5 51bd c6d7 9fbd
000003c0: e50d 31bd df7a 52bd 905a f8bc 8109 823d
000003d0: 4496 6b3d 49ed 483d 16f2 cc3d 3a57 f03d
000003e0: 0ec7 7bbd 3215 603d da2a b5bc 2d42 a13d
000003f0: de8d 373d 9933 0bbe 9ee0 8a3c 41ca 033c
0.0737194 0.03525261 -0.008765151 -0.06865849 -0.040078033 0.06647475 -0.01900595 -0.053918686
0.0015582786 -0.02689162 0.013294864 -0.03006029 0.05114105 -0.04181756 0.05845301 -0.060016762
-0.08691686 0.0799806 0.08795357 -0.1607483 0.014633535 0.007207481 -0.005673699 0.022142053
-0.02581904 0.060607143 0.07409117 0.04025667 0.035636544 -0.017099112 0.084550306 0.10416762
-0.05675886 -0.042942382 0.045287658 0.04477042 -0.023929892 -0.08994328 0.02411578 0.055945538
0.105274074 0.06515996 -0.027199524 -0.010527683 0.06901917 0.027633153 0.011481265 -0.06556428
0.083681434 -0.06839405 0.046593726 -0.19007422 -0.034949545 -0.07138563 0.04461579 -0.02477099
0.021693554 -0.005332868 -0.08841672 0.06341249 -0.00016847807 0.009925165 0.0010224094 0.027992915
0.051281225 -0.02738122 -0.035537634 0.004660683 0.08554833 0.019656537 -0.00015944846 -0.06483469
-0.012602735 -0.060034662 -0.060038593 -0.08840434 -0.020362765 -0.066637166 -0.098597825 -0.037706148
-0.06402545 0.012896649 -0.051488657 0.05595425 -0.081271574 -0.04832829 0.024687788 0.05718758
-0.07669146 -0.04694138 -0.029875444 -0.07838647 0.05093299 -0.022287045 0.021679014 -0.064737216
-0.019569239 0.06169035 -0.047198568 0.051131736 -0.06936602 0.044241175 0.09264108 -0.033836573
-0.094411805 -0.07137094 0.043328796 -0.0043075313 -0.07649319 -0.072845854 0.08590899 -0.008143512
-0.057201613 -0.025469925 0.015996471 -0.065217204 0.08806791 0.051569562 0.0021637557 -0.06371689
0.08086195 0.044107284 0.07440854 -0.08377408 -0.017826717 -0.034459505 0.012241512 0.01676146
0.040646207 -0.010127475 -0.040663857 0.014207559 0.021280207 -0.14855687 -0.0033893061 -0.004107403
0.024339171 -0.06704634 0.0838139 -0.044213608 -0.0765664 0.034826677 -0.0705486 0.08590638
-0.13430123 0.089008905 -0.07116983 0.062560014 0.065249406 0.085301876 -0.07393286 -0.07307512
-0.04507361 -0.048484985 0.049762286 0.08919629 0.03501693 0.0044620624 0.05763535 -0.05615417
0.06697419 -0.07583464 -0.018371917 0.031853758 -0.06587954 0.0029309145 0.013603733 -0.059651025
-0.010237065 0.046378393 0.07500043 0.057544187 -0.05901819 -0.022478618 0.08318617 -0.005045668
-0.088729955 0.023252264 -0.05878534 -0.09036636 -0.07046727 -0.18267113 0.08061007 -0.05346538
-0.050675824 -0.02102282 0.023029057 -0.009611743 -0.036882818 -0.05073454 -0.08004418 -0.13864622
-0.07877962 0.014128633 0.089842126 0.03867827 0.007941588 0.07232799 0.028968167 -0.0144073805
-0.055741075 -0.050574217 0.07348619 -0.07479989 0.051500253 -0.117630474 0.012099336 -0.062430635
0.011557393 0.047046676 -0.05642532 -0.0863987 -0.0041269385 0.08215426 -0.038478028 -0.037396155
0.021230951 0.015463938 0.004063718 0.01756893 0.096470065 -0.022844423 0.085594945 -0.008517156
-0.06208329 0.069104396 0.021191161 -0.06926134 -0.035628043 0.016836852 -0.011981487 0.07523908
-0.051694952 -0.012426691 -0.012125181 0.0085653365 -0.059346747 -0.037520315 -0.051213775 -0.078048274
-0.04322614 -0.05138671 -0.030316621 0.06349469 0.05751635 0.049054418 0.10007112 0.11735387
-0.06146913 0.054707713 -0.02211516 0.0787395 0.04481303 -0.13593902 0.016952809 0.008043827

fc2.bias f4 [128]
00000000: 38ee 43bb 3f18 f73a 2e92 0bbd a56e 4a3d
00000010: 9370 6fbd bb05 2c3d 6772 2dbb 8732 17bd
00000020: 6c55 073c dc76 71bd 28a8 1dbd 1ce1 453d
00000030: 70fa c83c 518d a13d 12ac 503d 4241 823d
00000040: bf48 853d d52d 9cbd 20a1 c23c a92b 493d
00000050: 5316 a0bb 34e9 003c 8860 00bc 8e86 2ebc
00000060: f1e9 c33b 62c7 073d 8686 1f3d 09a3 c5bc
00000070: dfda 3e3b 63db 7f3c 4eec 4cbd 8942 a73c
00000080: 61ce 1a3d c929 603d 1b8e 38bd fe33 a3bc
00000090: 3064 cfbc 2d53 223d 1d0e 53bd 8113 4a3d
000000a0: b4be 6c3d e8c6 6cbd 8078 1fbd 5da7 ce3c
000000b0: 3caa 57bc a9f5 9dbc 7ff6 7cbc 310c f2bc
000000c0: 4053 7e3c 38be 24bc 3ff9 27bc 0d53 6bba
000000d0: 98f0 f03b fe23 83bc 800e 6abd 8b37 553d
000000e0: 98e1 01bd 4a83 443d ab75 3e3b 5bd4 113d
000000f0: 9357 37bd 976e 413d 2b17 f6bc 2b76 19bd
00000100: 4509 2dbd 3a7f 033d 6770 dfbc fc63 0fbd
00000110: 8e7c 55bd 26a7 90bc 5aab 453d cf34 3dbd
00000120: e215 82bd 26d8 e9bc c93a 503d f59a 67bd
00000130: 65d4 8eba eab2 52bd b994 36bd 74d9 1dbd
00000140: 40ca 11bd 847f 28bc 0c0c 67bd e185 2d3b
00000150: e65a 6a3d 42a7 c2bb b95e 91bc 616b c63c
00000160: 15a1 5cbd 05d4 243d a1cb 03bd 50d9 e73c
00000170: 6aa4 dfbc a57d 0d3c fc66 1abd d7d4 f23c
00000180: 37a4 5cbd 52a2 39bd 3889 943c ed75 b23b
00000190: 98c3 31bd e15e 03bc 742d 093b 7971 d43c
000001a0: 089c 44bd 900b 6d3d f35f 683d b4a5 eabc
000001b0: 6593 453d 89c1 78bd 1430 15bd 1c07 13bd
000001c0: 5a96 a4ba 0aea 083d cd25 b63c d03a 28bd
000001d0: 537c 273c c25a 0fbd 3daf 0bbd f790 1b3c
000001e0: 1e3d c93c c9ed 92bc e08d 1c3d bbc4 a63b
000001f0: 546d 943c 2628 a4bd 7ff3 0b3b a58f 20bd
-0.0029896628 0.001885183 -0.034074955 0.049421925 -0.05845697 0.041997653 -0.0026465894 -0.03691342
0.008260112 -0.058951244 -0.038490444 0.048310384 0.02453348 0.07888282 0.05094535 0.06360103
0.06508016 -0.07625929 0.023758471 0.049113903 -0.0048854738 0.0078681 -0.007835515 -0.0106521975
0.0059788157 0.03314913 0.03894665 -0.024125593 0.0029122157 0.015616271 -0.050030045 0.020417469
0.037794475 0.05472735 -0.045057397 -0.019922253 -0.025316328 0.039630104 -0.05152713 0.049335007
0.057799056 -0.05780688 -0.038933277 0.02522629 -0.013163146 -0.019282179 -0.015439629 -0.029546829
0.015522778 -0.010055117 -0.010252296 -0.0008976914 0.0073528998 -0.016008373 -0.057142735 0.052054923
-0.031709284 0.04797677 0.0029061835 0.03560291 -0.04476125 0.047224607 -0.030040344 -0.03746621
-0.04224517 0.032103755 -0.027275277 -0.035007462 -0.052120738 -0.017657828 0.048259117 -0.04619294
-0.0635183 -0.02854545 0.050837312 -0.056544263 -0.0010897039 -0.051440157 -0.044575427 -0.038537458
-0.03559327 -0.010284308 -0.056407973 0.0026477503 0.057215594 -0.005940349 -0.017745363 0.024221124
-0.053864557 0.04024126 -0.032176618 0.028301865 -0.027300078 0.008635913 -0.03769587 0.029642506
-0.053867545 -0.045320816 0.018131837 0.0054461868 -0.043399423 -0.008018226 0.0020931633 0.025933014
-0.048000365 0.057872355 0.05673213 -0.028643467 0.04823627 -0.060731445 -0.036422804 -0.035895452
-0.0012557015 0.033426322 0.022234822 -0.041071713 0.010222512 -0.034998663 -0.034102667 0.0094950115
0.024565276 -0.01793565 0.03822124 0.00508937 0.018118538 -0.0801547 0.0021354852 -0.03919949

fc3.weight f4 [1, 128]
00000000: b85a a83d 04a7 233c 1c45 fbbb 0e16 f2bb
00000010: 3d01 01bc ec8d 033c 38c3 343c e53e b73d
00000020: 7a20 013c c371 eabc d003 5a3b 5ae3 0b3c
00000030: 53b1 a9bc a4d8 253d 35e1 913b 55e6 ba3d
00000040: 86d0 973d 99b9 87bc 836d b73c f9a8 1a3c
00000050: 8591 223d 0d21 c1bc 6924 6d3d b60b 42bc
00000060: 0a7f d53c 7de0 52bd 62fe d13b e379 9e3d
00000070: d3f3 c6bb e6a5 e43b b4aa 08bc bc4e 6a3d
00000080: a8c2 713d 5413 6a3c c473 ad3c fe3a 513d
00000090: 5a12 13bc e839 9cbc c152 0ebc bc92 4bbc
000000a0: 92cb 96bc 776d 3bbb afd5 13bb 9d08 4c3d
000000b0: d45a ce3d 9c3b ebbb 4ac3 df3b de35 5d3c
000000c0: 0a7f 30bc c08a 4ebb 361d 943b c15c 353c
000000d0: ab60 babc 3bb6 723d 94c3 bcbb 5658 123c
000000e0: 8908 4bbd a55a 42bb d3cd 3f3c a796 02bc
000000f0: 49aa 73ba 4ad0 973d 6ca4 4f3c 892d 193c
00000100: c53f d83c ab5b 06bc 44ce 573b 494b a2bc
00000110: 9af2 0cbc c279 723c 4098 febb 431b 7f3d
00000120: a8f0 2b3c 4e25 ebbb 7dba f03c 5de8 81bb
00000130: 96cc 0abc 1220 053c 7f14 793b f4c1 be3d
00000140: d89d 9bbb 5ef7 0fbc 1bc7 ec3d 620c 78bb
00000150: 3c28 cd3b 7477 4ebc b55d 863c 10fc 64bb
00000160: d91d b33c b810 a4bb 8b5d 0cbc 8085 123c
00000170: e971 ddbb ea7e 093d d06b df3b caf9 ee3b
00000180: 3d16 4abc 024f f13d 6747 a3bb 52b3 9a3b
00000190: 490c 1abb f192 2bbc 7c28 e6bb 311e 8ebb
000001a0: ecc6 a33a 896c 263d 536a 083c 12d8 273c
000001b0: fb9e 993c 39a3 90bc 8808 4b3c a074 f63b
000001c0: 7539 d63b e06f e5bb 65ac a2bc abe9 14bc
000001d0: 1369 993c bdda b53c 8e11 603c f05a b53b
000001e0: f414 54bb 0dfa 40bb 394c 02bd d3e1 a73d
000001f0: cec9 2cbc 265c 68bb fe50 5c3c 1cae 2e3d
0.08220428 0.00998855 -0.0076681506 -0.007387883 -0.00787383 0.008029442 0.011032872 0.08947543
0.007881278 -0.028618699 0.0033266433 0.008538092 -0.020714438 0.040489808 0.0044518956 0.091259636
0.074128196 -0.016567992 0.022391086 0.0094397 0.03968956 -0.02357533 0.05789605 -0.011843612
0.026061554 -0.05148362 0.0064084986 0.07738092 -0.0060715466 0.0069777844 -0.00834148 0.057203993
0.05902353 0.014286835 0.021173365 0.05108165 -0.008976543 -0.01907058 -0.008686722 -0.012425121
-0.018407617 -0.0028599182 -0.0022557785 0.0498129 0.10075918 -0.007178737 0.0068287 0.0135016125
-0.010772476 -0.0031515807 0.004520084 0.011069478 -0.022751173 0.05925582 -0.0057606194 0.008932194
-0.049568687 -0.002965608 0.011706787 -0.007970489 -0.0009295089 0.07412775 0.012673479 0.009349235
0.026397595 -0.008200566 0.003292934 -0.01981129 -0.008602763 0.014799537 -0.0077696145 0.06228186
0.010494389 -0.007176078 0.0293858 -0.0039644674 -0.008471629 0.008125322 0.0038006601 0.093143374
-0.004749041 -0.008787004 0.11561414 -0.0037849178 0.0062609 -0.012601722 0.016402105 -0.003494028
0.021864818 -0.005006876 -0.008567224 0.008942962 -0.006757964 0.0335683 0.006818272 0.007292961
-0.012334404 0.11782648 -0.004982877 0.0047210837 -0.0023505858 -0.010472045 -0.007023869 -0.004337095
0.0012495196 0.04063085 0.008326131 0.010244386 0.018752566 -0.017655956 0.012392171 0.007521227
0.006537611 -0.007001862 -0.019857595 -0.009088914 0.018726861 0.02219903 0.01367606 0.0055345222
-0.0032361122 -0.0029445917 -0.031810973 0.081973694 -0.010546161 -0.0035455315 0.013447044 0.042646512
