checkpoint_actor.pth (torch_old, 169466 bytes, 6 tensors)

fc1.weight f4 [256, 33]
00000000: 322d b53c 9d4f cbb9 d39e 14be dbe6 ac3d
00000010: a890 603d 0287 863b 2e4f 1cbd 7283 bfbd
00000020: 4642 2bbd fe5e c13d 94ca af3b 2828 7d3d
00000030: 322b 31be 1ad2 cd3c f39a 833d 481f 1e3d
00000040: 8210 a2bd ce9a 0dbc f684 f33b 742a 393d
00000050: f598 43bd 6494 4a38 e3ae cebb ba4c c73d
00000060: d2a5 04be 45f5 c2bc 21f0 753d 13e1 7fbb
00000070: 9b1a 78bd 702a 013d 2ac4 173d 7400 e93c
00000080: f882 97be b7c4 1ebe c79e 13bd 5205 93bd
00000090: 77e9 183b c196 4b3d 12c4 43bd d67f fc3c
000000a0: d7f2 903d e7a2 2b3d 6353 0b3e 2235 753d
000000b0: 9637 ad3d 0109 863c a981 09bc 9cfc 3e3e
000000c0: 4eb1 483c 3f00 b93d dc7a 133d 172d 0ebd
000000d0: 8876 b53c 55c5 073d da64 a2bd 522f 08bd
000000e0: 47b1 f13d d721 023e fc7b a83d f349 523e
000000f0: 36ae 52bc 5db3 2c3d ca5b 71bd 73bc c83c
00000100: 1a4e 543d d57f 9fbc 0256 bbbc 515a 1cbc
00000110: 5195 e7bd 64d0 73bc 3186 19bd 5381 f73d
00000120: f7dd 26bd 65fa 303e 5ffb f23d 35ac e1bd
00000130: 5e33 27bd e0c9 9abc 1034 e3bd c576 21bd
00000140: a6f4 393d 2192 6d3d abd9 66bd 38bc b3bd
00000150: 3186 a7bd 0d21 d03b 7c0c 89bc d515 96bc
00000160: e937 8bbd eef5 ddbb 9e7f 14bd 0178 c5bd
00000170: dd02 773d 87cf 563c 1e65 1dbe 2841 063d
00000180: 1b69 9abd 7ca1 12bd 191c f9be 3020 ab3d
00000190: 1b4f c93d c1ad 9fbc 9ed1 10bd 376a 00bd
000001a0: 80d1 d7bd d071 e83b 9027 c03c f9dc 143d
000001b0: 09d1 bb3d 429d 923b 4a24 bc3d ab1d ecbd
000001c0: a00f 65bd 6972 43bd 9865 5abe 9abb 16bc
000001d0: 934d a1bd 5e08 a4bd 5d7c b63b f22f a2bd
000001e0: 62ff 02be e8d1 1a3e 5fbf c0bd 5693 b2bd
000001f0: 9888 11be c18e b63c 6130 843d 66e7 023e
00000200: 8c51 63bd 1e2e 0fbd 38cd 34bd 801a 12bf
00000210: 40fd 953d f181 3dbd b180 213e fc11 3bbd
00000220: c060 e53c 1f7c 093b b8d2 943d 4b68 b5bc
00000230: 8980 55bc be15 f4bd 2bab 18bd 4209 97bc
00000240: fef8 5b3d 98e8 843d 9354 de3d fdae 963d
00000250: 9d07 28bd dad5 273b 6377 8d3d b29b e9bb
00000260: 4ded 0dbd 4847 7b3d 1bd8 5bbc 9ba2 3cbd
00000270: caf9 f8bc d0dd 3ebd ce1f e13d 0ac7 9abd
00000280: 5183 c53d b84f 373c 2a9f b23d 28a8 743d
00000290: 9552 66bd 9e94 cfbc d04f 3b3d cd90 3fbd
000002a0: 470d 85bc 76e1 b9bd 9319 863b 391c fbbd
000002b0: 1420 9abc a74c 0bbe f5d5 1d3e a426 b83d
000002c0: f728 b63d 48c8 1cbe 49aa 00bd 673a 813d
000002d0: b08b 133d a0f2 f0bc 22d3 63bd 8fc8 e7bb
000002e0: d283 963c 1f49 7f3c 343d f2bd fc4d 79bd
000002f0: 4751 893e b2cd cc3c e548 dfbb 7deb f3b9
00000300: 9798 b73d 2601 a0bd e88c bf3c 2b62 cabd
00000310: b44c 823c 1e18 543e 7e03 39be 98df f1bc
00000320: aa08 96bd bb67 d4bd 3657 14bd e1bb 923c
00000330: 9175 cbbd 6d99 433d 508c 5fbe 2ddb 81be
00000340: 9efc 37bd 96ed a63c b0ef c7bd ccb2 25be
00000350: bf1b 4fbd 1356 12bc 189d e8bd d9e0 9ebd
00000360: 3e1e 37be 2b79 3a3d 9c6f 673e ae4d bcbc
00000370: 7dea 8cbe 0eb7 babc 5a19 21be 3ef4 533d
00000380: 23b1 263e 4558 ebba e251 09bd 90ba 223d
00000390: c9f2 60bd 3880 463c 9606 3dbd befd ecbd
000003a0: 9ed4 f3bd 0a95 ef3b f922 95bd 3658 10be
000003b0: 3eec 74bd 5087 3dbc 55c6 ac3c ff19 babc
000003c0: 04af 00be 1011 eabb a736 9fbd a88e 263d
000003d0: 4464 823d f696 c73c f74b 11bd 8698 fd3c
000003e0: 0dce 9bbd 89be 093e db24 7c3d a0c9 7f3c
000003f0: a0de 663b f19b b3bd d502 3b3e bf52 ee3d
0.022116277 -0.00038778494 -0.14513712 0.0844247 0.054825455 0.0041054497 -0.03816145 -0.09351243
-0.04181125 0.094419464 0.0053647254 0.061805874 -0.17301634 0.025124598 0.064260386 0.03860405
-0.07913305 -0.008642865 0.0074316217 0.045206502 -0.047753293 4.8298753e-05 -0.006307469 0.09731431
-0.1295388 -0.023798594 0.060043458 -0.0039044067 -0.060572248 0.031534612 0.03705231 0.028442599
-0.2959211 -0.15504728 -0.036040094 -0.07178749 0.0023332515 0.049704317 -0.04779441 0.030822676
0.07077568 0.041903403 0.13606028 0.059865125 0.08457868 0.016361715 -0.00839273 0.1865105
0.012249304 0.0903325 0.03600584 -0.03471097 0.022151247 0.033147175 -0.07929392 -0.033248253
0.11801391 0.12708221 0.08226773 0.20536022 -0.012858918 0.04216324 -0.058925427 0.024503922
0.051832296 -0.019470135 -0.02286816 -0.0095430175 -0.11307777 -0.014881227 -0.03748149 0.120852135
-0.040739026 0.17283018 0.118643515 -0.11019174 -0.040820472 -0.01889509 -0.110939145 -0.039419908
0.04539933 0.058000688 -0.056359928 -0.08776134 -0.08179892 0.006351596 -0.016729586 -0.018320957
-0.067977734 -0.006773702 -0.036254518 -0.096420296 0.060305465 0.013111002 -0.15370604 0.03277698
-0.075395785 -0.035798535 -0.4865425 0.08355749 0.09829541 -0.019492032 -0.035356157 -0.031351294
-0.10538006 0.0070936456 0.023456365 0.03634355 0.0917073 0.004474313 0.09186609 -0.11529096
-0.055923104 -0.047716532 -0.21327817 -0.009200001 -0.07876124 -0.080094084 0.0055690245 -0.07919301
-0.12792733 0.15119135 -0.09411501 -0.08719508 -0.14212263 0.022284867 0.0645454 0.12783584
-0.05549769 -0.03495609 -0.044141024 -0.57071686 0.07323694 -0.0462665 0.15771748 -0.045671448
0.028000236 0.0020978523 0.07266754 -0.022144457 -0.013031133 -0.119182095 -0.037272613 -0.018437032
0.053704254 0.06489676 0.10855975 0.07357595 -0.041022886 0.0025609643 0.06907537 -0.007129156
-0.034650136 0.061347276 -0.013418223 -0.04605351 -0.030392546 -0.046598256 0.109923944 -0.07557495
0.09644187 0.01118844 0.087217644 0.05973068 -0.0562311 -0.02533942 0.045730412 -0.046768952
-0.016241683 -0.090762064 0.004092404 -0.122612424 -0.018814124 -0.1360346 0.1541365 0.08991745
0.08894532 -0.15310776 -0.031412397 0.063099675 0.03602189 -0.029412568 -0.055621274 -0.007073469
0.018373404 0.015581398 -0.1182808 -0.060865387 0.26819822 0.025000427 -0.0068141096 -0.00046524024
0.08964651 -0.07812719 0.023382619 -0.09882005 0.015905716 0.20712325 -0.18067738 -0.029525563
-0.07325871 -0.103713475 -0.036215983 0.017911853 -0.099345334 0.04775374 -0.21830869 -0.2536253
-0.04491865 0.020376962 -0.09762514 -0.16181487 -0.05056357 -0.0089316545 -0.11358088 -0.0775773
-0.1788263 0.04552571 0.2260117 -0.02298626 -0.2752265 -0.022792365 -0.15732327 0.0517466
0.1627851 -0.0017955384 -0.033525355 0.0397287 -0.054919038 0.012115531 -0.04614886 -0.11571835
-0.11905788 0.007311468 -0.07282061 -0.1409615 -0.05979561 -0.011567906 0.021090666 -0.022717474
-0.12566763 -0.0071431473 -0.07774096 0.04066339 0.063667804 0.024363976 -0.035472836 0.030956518
-0.076076604 0.1345159 0.061558586 0.015612036 0.003522791 -0.08769978 0.18262799 0.11636876

fc1.bias f4 [256]
00000000: 0d45 fc3d 3fe4 4b3e 4ca3 88bd 4013 973d
00000010: d05b 063d 7036 85be 5119 25be 34bb 2d3b
00000020: 1531 8d3d c721 84bc d734 2bbd e22c b33a
00000030: 3427 313e fe14 1d3d f5e3 bb3d a906 2f3d
00000040: dcc9 9fbd 596d babd 67e7 413e d53d 94bd
00000050: c214 fe3d 07af ed3d ba82 ac3d e2ad 6ebc
00000060: 3c55 9f3c 73db 9abc 30c6 2c3e 0e86 31bd
00000070: cd46 353e cc00 b83d a66d 1f3d daa7 3fbd
00000080: 69d0 1cbe a8e8 0dbe f197 2c3c 7a4c 14b9
00000090: 10f3 393e 7a9b 1f3d 9378 06be 313a b43d
000000a0: e8ba b13c 80cd 17be 14fc 2f3e a006 18bd
000000b0: a080 24bd 1911 29be ce29 0e3e 9539 493e
000000c0: ae30 0dbe cca6 b13d c8e4 07be 9df0 0d3e
000000d0: 048a 17bd c03b fdbd 6a1a c6bd e873 383e
000000e0: ac89 f63c 6b87 03bd d198 bfbd c39a 983d
000000f0: 1d50 c7bc f30c 3d3e c3b1 a4be 1b9d 9fbd
00000100: 2208 f2bd 8ee7 bebd 8020 a83d d630 253e
00000110: d801 09bc 7941 013e 568b 413e fe8c 0f3e
00000120: 23ca 28bd ebc0 3f3d 819d c23d 8fc4 ddbb
00000130: 4db7 993d 433e 963b 4c83 4d3e 75fa 02be
00000140: 0164 733d 569c c03d 8a6f 00bd b81a 293e
00000150: 4e77 3c3d 6f7a 34be b300 943d 9c8a 38bc
00000160: 5a94 0d3e 9d78 b83d 7c9b 853d 12d3 4b3c
00000170: 1e4b 6e3b a792 6fbe 5d1f 67bd 3eae ff3c
00000180: 3630 783e beba cabd 57df 4d3e f16f 14be
00000190: c3f9 183e a090 6cbd 518a 303e f31f 26be
000001a0: d1ad d2bd 4016 423e 1287 c4bd c123 193e
000001b0: c88b 933c 1fd2 d0bd cded 603e 47c5 3c3e
000001c0: aec4 bfbd 1fa5 5c3d e2b4 2bbb 5ed8 dfbd
000001d0: f786 f43b ee39 57be 047f 793d a072 f2bd
000001e0: 959f a23c 78aa b63d 4290 9c3d d461 953d
000001f0: adbd b6bc a2a4 d53d c556 113e 6e4c a33d
00000200: 0204 02be b082 873e 2a55 59be ae8e f4bd
00000210: 3dc8 173e 8b3e 1f3e 96a6 c93d 15dd 45bd
00000220: 1989 45be b21c b13d 9fb8 1bbe eb7b a4bd
00000230: cea8 e53c 6c3f e9bd d4fe 6cbd 1468 e03b
00000240: 320f 6abd 7f2a 1cbe e829 92bd bd33 50bc
00000250: 319a f23d fbd7 e73d f551 a9bd 3a19 5bbc
00000260: 9ef6 b23d 0ddb 6c3e d254 c93d cf89 9e3d
00000270: a9d0 9b3d 6c5a 76bd 4ae3 a1bd 2758 11be
00000280: 0e21 4c3e 3fe3 b3bd 4207 893d 2d0f 633d
00000290: 5b69 39bd 4742 213e bdf9 1c3e d77b b9bd
000002a0: e524 243d e507 243e 7885 253d 5c43 303e
000002b0: b1a7 3e3e 7e84 613e 0f1e bc3d 4a28 ea3d
000002c0: a70f c83d 52c9 97bc 7fe9 3a3e 64aa 7abd
000002d0: 25c5 35be 16c6 443c 063a 913c 4021 1c3d
000002e0: 73f6 ad3d 8a60 9c3d d453 db3c c16d bebd
000002f0: 4597 16bb 21e0 193e 1763 5ebe e03e 253c
00000300: dcf8 053e 4652 fe3d aa92 7b3e f555 f1bd
00000310: b1cb 9ebd 5f9a b7bd c4f4 f33c f2a7 7abd
00000320: b0cf aa3c 46cf 913d c541 b0bd 3efe cfbd
00000330: 6d0d a83d a6bc b639 4c8c d6bc 7386 863d
00000340: f3cb b63d de38 52bd f7f2 be3d 2285 473e
00000350: 58ce 713e 8140 ffba 2fd5 893c 276c 3fbc
00000360: 41bb 3e3d 24fc 0d3e b781 a93d f8e1 ca3d
00000370: 44fa 3e3e aa97 50bd 2bf0 31bd 21d2 81be
00000380: 36f3 e93d 341b 89bd f26b 0abe 5458 80bc
00000390: fbe0 cdbd 7742 b33d a423 69bd ed52 b53d
000003a0: 6843 b1bd f87b 82be 72c6 2e3e c21c 81bd
000003b0: b787 1ebd 34e2 213e fdb7 f43d f3a5 bdbd
000003c0: 9249 873d a0f2 86be ce51 353e b5b1 643d
000003d0: 92c6 693e 232e 1d3e ce25 9c3d 8bcf 443c
000003e0: 6125 e33d f154 00be feef 633e 3458 30bc
000003f0: 676d ec3d 18ad c6bd e463 2a3e 98f7 7c3e
0.12317858 0.19911288 -0.066717714 0.073767185 0.032802403 -0.26018095 -0.16122939 0.0026509287
0.06894127 -0.016129388 -0.04179844 0.0013669992 0.17300111 0.038350098 0.09174339 0.04273096
-0.078021735 -0.09102888 0.18935929 -0.07238356 0.12406303 0.116056494 0.084233716 -0.014567824
0.019449823 -0.01890347 0.16872478 -0.043340735 0.1770279 0.08984527 0.03892293 -0.046790935
-0.15313877 -0.13858283 0.0105342725 -0.0001414287 0.18159127 0.038966633 -0.13131933 0.08800162
0.02169557 -0.14824486 0.17186004 -0.037115693 -0.04016173 -0.16510428 0.13883135 0.19650872
-0.13788101 0.08674392 -0.13270867 0.13861318 -0.036996856 -0.12364912 -0.09673007 0.18012965
0.030094944 -0.032111567 -0.09355319 0.074513935 -0.024330193 0.18461971 -0.3216687 -0.07793637
-0.118179575 -0.09321509 0.08209324 0.1613191 -0.008362256 0.12622632 0.18900809 0.14018628
-0.041208398 0.04681484 0.09502698 -0.0067678164 0.07505665 0.004585059 0.20069617 -0.12790854
0.059421543 0.09404819 -0.031356372 0.16514099 0.046012215 -0.1762483 0.07226696 -0.011263516
0.13826123 0.0900738 0.06523797 0.01244046 0.0036360691 -0.23395787 -0.056426395 0.031211015
0.24237141 -0.098988995 0.20104729 -0.14495827 0.14939027 -0.057755113 0.17240264 -0.16223125
-0.10287059 0.189538 -0.09596075 0.14955045 0.018010989 -0.101963274 0.21965714 0.1843463
-0.093636855 0.05386841 -0.0026200344 -0.10929941 0.007462378 -0.21018192 0.060912147 -0.11838269
0.019851485 0.08919233 0.076447025 0.0729405 -0.022307241 0.10431792 0.14193256 0.07973562
-0.12696841 0.26466894 -0.21223894 -0.119412765 0.14822479 0.15551202 0.09846227 -0.048306543
-0.1929058 0.08648051 -0.15207146 -0.08031448 0.028034594 -0.1138905 -0.05786021 0.0068483446
-0.057143398 -0.15250586 -0.07136899 -0.012707648 0.11845816 0.11320492 -0.08267585 -0.013372714
0.08738445 0.23130436 0.09830631 0.07741129 0.07608158 -0.060144827 -0.0790468 -0.14193784
0.19934484 -0.08783578 0.066908374 0.055434395 -0.04526649 0.15747939 0.15329643 -0.09056824
0.040074248 0.16018637 0.04041049 0.17213196 0.18618657 0.22023198 0.09185421 0.11433466
0.097686104 -0.018528614 0.18253134 -0.061197653 -0.17750986 0.012010118 0.017727863 0.038117647
0.08494272 0.07635601 0.02677337 -0.09298278 -0.0022978347 0.15026905 -0.21717487 0.010085791
0.13083214 0.12418036 0.24567667 -0.11783973 -0.07753695 -0.08964991 0.0297798 -0.06119532
0.020850986 0.071196124 -0.086062945 -0.10155915 0.08205686 0.000348543 -0.026189946 0.06568613
0.08925619 -0.051323764 0.093236856 0.1948438 0.2361387 -0.001947418 0.016825287 -0.0116835
0.046565298 0.13865715 0.08276694 0.09906381 0.18650156 -0.050925888 -0.043441933 -0.25355628
0.11423342 -0.06694642 -0.1351774 -0.015667118 -0.10052677 0.087529115 -0.056918755 0.088537075
-0.08655435 -0.25485206 0.17067888 -0.06304313 -0.038703647 0.15808946 0.119491555 -0.09260168
0.06605829 -0.26356983 0.17706987 0.055833537 0.22829655 0.15349631 0.07624398 0.012012373
0.11091114 -0.12532403 0.22259519 -0.010763217 0.11544304 -0.09700984 0.16639668 0.24703825

fc2.weight f4 [128, 256]
00000000: 9545 c43c 17d9 043d db52 1cbe 3581 c0bd
00000010: ca41 9dbc 20eb 473c 8986 03be b6ec 213d
00000020: f4b7 0bbe 0e82 d43d 2a42 ec3d 0008 3d3e
00000030: d4a8 e53d 5cbe ba3d ac6d 00bd ed0d 743c
00000040: 3c73 cebd 9dbe 083d 8626 cfbe d5b7 0dbe
00000050: 7535 0f3e bb7e 42bd e59d 1f3e e80b 733d
00000060: 3fc9 e3bd 9485 6fbd 07f6 25be 694d 88bd
00000070: 554d 51be 2d5f ab3d 261a 0dbe acc7 9f3d
00000080: 8758 dfbc 7fd4 8fbd d64b d73d 0ff7 873d
00000090: 4e44 d83d ab47 c03d c242 a1bd 416b d2bd
000000a0: 4871 bcbe c3a5 df3d 1939 c43c 83a8 abbb
000000b0: b84a bdbc 52dd 113e a7a2 5f3d b5c3 b5be
000000c0: 8839 13be 1cfe 91bd 2234 033e d789 53be
000000d0: 3ea3 f33d 16c4 79bd e6e0 123e 4d9a 553d
000000e0: f5f3 1cbe f83b b13d d014 b33d 83a3 eebc
000000f0: 8651 003d 3e2c c83d dbdc 3a3d 1f58 c83d
00000100: 0d02 ff3c 2cb2 c7bd fa7f e63a f2b8 c33d
00000110: 6edc b2bd 5238 0c3e c45a 81be 8749 a0be
00000120: 6665 1fbd c1ae 5abe 7ef8 cc3c ce81 61bd
00000130: 2bcf bdbd f683 733d 6d0f 0a3e ed38 d03c
00000140: eec1 66bc 77a5 e53d 593d cdbd 8f39 4b3d
00000150: 537b 023e 081a b2bb 95cb d83c 3a19 433e
00000160: 891a 9c3c 88b1 403d 400b 5c3d b685 2e3e
00000170: e9a5 a2bd e4d8 a73c 483b 1abe 1c33 b93c
00000180: 584c 85bc 4c7e f5bc fffe d1bc 8b26 21bf
00000190: ae08 a93d c622 243d 824f 03bc bab4 edbd
000001a0: 0912 e6be 5705 503c 0ea8 1cbe 4bd5 2cbd
000001b0: 5872 bcbd 3c93 3c3c 73c3 ba3b 5fd3 e2bd
000001c0: 983e c43d 17a7 d4bd 3da0 143e 426c c4bc
000001d0: 3e45 443e 9a7d 753e 9828 143d 86ba 103c
000001e0: 565a 9d3c f58e 713d bc5f b1bc 21e2 7e3d
000001f0: 2f9f cf3d fb93 9ebd 265e ec3d 4890 c23d
00000200: 42f7 28be bfa1 0f3e 20c2 2fbe 8639 c9bd
00000210: f084 c73d f348 0bbd 22bb e1bb 7557 cd3d
00000220: 48ee c9ba ecb3 bfbb 6a70 f13d 708d 06be
00000230: 1ab9 f5bc 35a8 8bbd ceef e53d 70b8 5cba
00000240: 576b 21be 2818 de3d 2ba9 17be 22a6 b23d
00000250: 6790 bbbd bf70 bd3c 21fb 34be a81d 373e
00000260: 5479 71bc 9ce5 86bb 64ff 6cbe 1a7c 253e
00000270: 6899 ca3d fa0e 76be 7ef5 443e eded adbb
00000280: 2de2 383d 783a d4ba 894b 8ebd 52c5 353e
00000290: 2373 153d e8cf b2bd 0685 2cbe abaf 833d
000002a0: a376 a03d 4732 54bd 1261 8ebd a043 eabc
000002b0: 619d ecbd d035 6abd 772e 52bd 8415 d63c
000002c0: 1c48 053e ede5 093e 2804 61bc 58f7 ab3d
000002d0: 24eb e2be 62aa 23be 6c34 643e a682 05be
000002e0: 495f 5f3d c39e b13d c045 813d e039 92bd
000002f0: 5e2e 913e 416e 6dbe 5e6a 09bd 272b 1e3d
00000300: 8280 e2bd 0c5d 71bd aa94 15be 220a 2fbe
00000310: 98b1 03bf caa8 543e adcd 493e af59 d1bd
00000320: 143f 5fbe 8fc4 09be dc60 873e 5947 1e3e
00000330: 11dd b6bc 7cd3 633d 60d8 4bbe 48da 7abd
00000340: 4e44 443d 41be 0fbe c23d 513e af2e 193e
00000350: 49d6 5dbd fab7 1c3d 887a 23be 1238 913c
00000360: 3545 0bbe 6998 aabd dac5 1fbe 8b46 a53d
00000370: 1990 e73d e131 17bc 5840 2ebe 419f 313e
00000380: fa9d 803d 1264 9bbd ac5c 5dbd 9d5e acbe
00000390: cb05 d93d d498 f43c eb97 823d bc5f 3b3e
000003a0: c747 f73c 92f2 87bc 83a8 af3c 55aa 0abe
000003b0: 2239 1e3e 2378 113d 1229 3dbe 7e3e 32be
000003c0: ac64 f33c 627c 753d 0961 cfbc 99a2 07bd
000003d0: c563 653c e28c 9b3d 3861 8d3d 73fb 0bbc
000003e0: d7ba 5fbd de0c 6b3d ece2 94bd 9b2e 723e
000003f0: 1e96 fc3c 764f df3d c56b a03d 419f db3c
0.02395896 0.032433596 -0.15265982 -0.09399644 -0.01919641 0.012202054 -0.1284429 0.039532386
-0.13644391 0.103763685 0.11536057 0.18460083 0.11213842 0.091183394 -0.03135459 0.014895898
-0.10080573 0.033384908 -0.4045908 -0.13839658 0.13985236 -0.04748414 0.15587576 0.059337527
-0.11122369 -0.058477 -0.16207133 -0.0665539 -0.20439656 0.08367763 -0.13779506 0.07801756
-0.027263893 -0.07022952 0.105125114 0.066389196 0.10559903 0.093886696 -0.07874061 -0.10274363
-0.36805177 0.109202884 0.023953008 -0.005238594 -0.023106918 0.14244583 0.054598477 -0.35500875
-0.14377415 -0.07128546 0.12812856 -0.2065805 0.1189637 -0.060978018 0.14343604 0.052149106
-0.15327437 0.08654016 0.08744204 -0.029130703 0.031327747 0.097740635 0.04562078 0.09782433
0.031128908 -0.097507805 0.0017585747 0.0955676 -0.0873345 0.1369336 -0.2526456 -0.31306097
-0.03891506 -0.21355726 0.025020834 -0.055055432 -0.0926803 0.05945202 0.13482447 0.02541777
-0.014084322 0.112132005 -0.10021467 0.04961544 0.12742357 -0.005435232 0.026464263 0.19052592
0.019055622 0.047044307 0.053721666 0.17043194 -0.07941801 0.020489164 -0.15061677 0.022607379
-0.016271755 -0.02996745 -0.025634287 -0.62949437 0.08253609 0.040072225 -0.008014562 -0.116067365
-0.44935635 0.012696586 -0.15298483 -0.0421956 -0.09201497 0.011509713 0.005699569 -0.11075472
0.09582251 -0.10383432 0.14514251 -0.023977403 0.19167039 0.23973694 0.036171526 0.008833533
0.019208115 0.058974225 -0.021652095 0.062227372 0.10137784 -0.07743069 0.11541395 0.09500176
-0.16500571 0.14026545 -0.17163897 -0.09825425 0.09742153 -0.034005117 -0.006888763 0.10026447
-0.0015406096 -0.005850306 0.117890194 -0.13139892 -0.02999549 -0.06819192 0.1122738 -0.00084198173
-0.15763603 0.10844451 -0.14810626 0.087230936 -0.09158402 0.02312505 -0.17673923 0.17882407
-0.0147384 -0.004116727 -0.23144299 0.16160622 0.09892541 -0.2402915 0.19234273 -0.005307904
0.045137573 -0.0016191741 -0.06948001 0.17751053 0.036486756 -0.08731061 -0.1684762 0.064299904
0.07835128 -0.05180576 -0.069521084 -0.0285967 -0.11553455 -0.057180226 -0.051313844 0.026133306
0.13015789 0.13466616 -0.013733901 0.083967865 -0.44320023 -0.15982965 0.22285622 -0.1303812
0.05453423 0.086728595 0.06312132 -0.07139945 0.28355688 -0.2318659 -0.033548705 0.038615372
-0.11059667 -0.058926627 -0.14607492 -0.17093709 -0.5144286 0.20767513 0.19707365 -0.10222184
-0.21801406 -0.13453887 0.26441085 0.15456904 -0.02232221 0.05562161 -0.1990676 -0.061243325
0.047916703 -0.1403742 0.20433715 0.14959215 -0.054159436 0.03826139 -0.1596471 0.017726932
-0.13600619 -0.08329851 -0.15602818 0.08070096 0.11306781 -0.009228201 -0.17016733 0.17345907
0.06280132 -0.07587446 -0.054043457 -0.33665934 0.10596808 0.02985803 0.06376632 0.18298239
0.030185593 -0.016595159 0.021442657 -0.13541539 0.15451482 0.035514962 -0.18472698 -0.17406651
0.02971109 0.059933074 -0.025314825 -0.03311405 0.014000838 0.07595231 0.06903309 -0.008543837
-0.054621544 0.057385318 -0.072698444 0.23650591 0.0308333 0.10903828 0.078330554 0.026809337

fc2.bias f4 [128]
00000000: c5c0 a53c 893a 2bbd e84f 22bc cda7 66bd
00000010: 0d69 97bd 6427 8e3d 0b69 f0bc 5ea6 8ebd
00000020: 32aa a9bd 2239 c93c 9af1 8c3d 1e11 2cbc
00000030: 3522 d8bc db6b a83c d366 9fbd 44f5 033d
00000040: e9e5 f4bb 5703 233d 609f 05bd e7f1 52bd
00000050: bf7a 903c c9b3 3fbd d631 5fbd 630e 753a
00000060: 168f a6bc badb 763c 33f8 c1bc cc68 9c3c
00000070: bef1 c4bc 9200 a23b 71aa 5fbd 802b c5bc
00000080: 39b1 babd e294 33bd 335d 4dbd e1b3 7ebc
00000090: 517e 913a 62ee c9bc fc0c 0fbd 6b9f 71bc
000000a0: fbf3 803d 537c 3bbd 58bf b73c cf37 2fbd
000000b0: 4b68 35bc 5a88 4e3d f1cf 583d d83e bdbc
000000c0: 6cac fd3c 5c30 bd3d e805 393c 8cdc f9bc
000000d0: 8425 a3bb 92d8 98bc f4d5 5dbc b9ff 813d
000000e0: 13af 143d 45a3 ef3c ebd0 783d 0a29 94bd
000000f0: 66fc e13b bf3b 763d 46c3 1bbc 7c67 8d3d
00000100: 1806 81bd 43e6 143d 6d49 873c ea08 3b3d
00000110: e6c4 28bb 0fbb bb3c 7053 26bd 3a22 943d
00000120: 7bca f33a 2be0 483d 38d0 65bd bde3 2c3d
00000130: 9217 9abd 9dac 5f3d 21cc 4f3c a011 c33d
00000140: 19c1 39bd e451 48bd 0f03 ff3c abff 8dbb
00000150: f306 643b 4cab 4abd 7715 ae3c 0ba6 3a3d
00000160: f4dd 863d a7d8 0ebc d716 863d a94f dc3c
00000170: 379d 2b3d 5cfd 913d 2179 f7bc 1f90 803c
00000180: fdb6 45bd 2380 be3d 1f63 973b ed2f 1d3c
00000190: 18ff 65bd 26e1 843d 7fcf e03c 859d 1ebc
000001a0: 4b20 5a3d 49c9 023d 1b5c 38bd 418c 993d
000001b0: 0d12 9a3d 8612 2a3c 01ba 2cbd 74fd c7bd
000001c0: 7b78 c23d 1f89 1cbb 681f 933d 26fc 233d
000001d0: eb16 8b3d 8b7c 14bc 7f17 f2ba 1fd7 0dbc
000001e0: 542a 09bd e7e2 723d 51f2 5abd 2737 023d
000001f0: b939 1bbd 76ed c2bc a924 ebbb c72b ddbb
0.020233521 -0.04180387 -0.009906746 -0.05631237 -0.07393084 0.06941107 -0.029346963 -0.06965326
-0.08284415 0.024563376 0.06882019 -0.010502128 -0.026383499 0.020559242 -0.07783284 0.032216325
-0.0074736965 0.039798107 -0.032622695 -0.051500227 0.017636655 -0.046802316 -0.054490887 0.0009348152
-0.0203319 0.015067035 -0.02367792 0.01909294 -0.024041053 0.0049439156 -0.054605905 -0.024068594
-0.09115834 -0.043843158 -0.05013771 -0.015545816 0.0011100267 -0.024649803 -0.034924492 -0.014747481
0.062965356 -0.04577286 0.022430107 -0.042777833 -0.011072229 0.050423004 0.052932683 -0.023101255
0.030966006 0.092377394 0.011292912 -0.030500673 -0.0049788374 -0.018657956 -0.01353978 0.06347603
0.036299776 0.029252658 0.060746115 -0.0723439 0.0068965433 0.060115572 -0.009507006 0.06904504
-0.062999904 0.036352407 0.016514504 0.045662798 -0.0025752126 0.022916345 -0.040606916 0.07233091
0.0018599773 0.04904191 -0.056106776 0.042209376 -0.07524027 0.054607976 0.0126829455 0.09524846
-0.045350168 -0.048906222 0.031129388 -0.0043334565 0.003479418 -0.049479768 0.02125047 0.045568507
0.06585303 -0.008718646 0.06547325 0.026893454 0.04189798 0.071284026 -0.030209126 0.015693722
-0.048270214 0.09301784 0.0046199705 0.009593946 -0.05615148 0.06488256 0.027442692 -0.00968111
0.053253453 0.03193024 -0.045009714 0.074974544 0.07522974 0.010380393 -0.042169575 -0.09765139
0.09495636 -0.0023885441 0.07183725 0.04003539 0.06791481 -0.0090628965 -0.0018470137 -0.008657246
-0.033487633 0.059298422 -0.053453747 0.03179088 -0.037896845 -0.02379487 -0.007176001 -0.0067496034

fc3.weight f4 [4, 128]
00000000: 98fe 703e 7303 2b3f 67ce 96be a2c3 a33e
00000010: 9363 a93e 1d05 cabc 3bc3 6cbe d18c 373e
00000020: 64f0 9b3d 8c21 d2bd 9160 323c 6bb8 c1bd
00000030: da77 0a3e 6ed9 e73d 1008 98be be59 f53d
00000040: 8488 ea3e 2995 c9bd b868 453e dd8b 183e
00000050: c971 223e 4c0e ad3e e149 e63d 1f12 343e
00000060: b444 813d 7e3f 243d d0e1 f73c 0bd2 91be
00000070: 486a 0fbe e61b 99be f523 243d 0b55 00be
00000080: ec0c a6be bd30 cdbd 8390 c93e 5dc3 7f3e
00000090: e513 b6bd 6f52 7ebe 16f1 c6bd f255 f23d
000000a0: a6e2 3d3e 94c2 ca3d 41ab 92be 4179 433e
000000b0: 52ea c83d 40c1 b03e fe67 6f3e aff3 e3bd
000000c0: 8a0e edbd c36a 05be 8f0d 54be e2bf 0e3e
000000d0: cb6d 113e afe3 0f3c b051 23bd 3e48 ab3e
000000e0: 3f82 0d3e 1ea2 0abf 1458 b83c 5c73 133f
000000f0: 9058 033e 99df d9be 1377 8bbe fc26 d83d
00000100: bd40 453d b787 a1bd d30c 48be c858 1abd
00000110: 578f b53d b8c3 ca3c afc2 ff3d e94f 23bf
00000120: 10e9 b93e 1def 25be ad8e fc3c e8a4 ea3c
00000130: 7cd8 33be 294f 9d3d 172a 913e ca9a 0bbe
00000140: 7b2a 423d b3e4 e53e 75a7 9abb 40c6 aebe
00000150: 2bff 9e3d 56ff f03d 0a16 88bd 5d9e 033e
00000160: 93b1 733e ac25 20be 673e 9c3e 1b9c 7c3d
00000170: e2d0 a4be 6fb9 c3be 51f5 e43e 3ea4 00ba
00000180: b9c3 02be 41ab 00be 3dbe 833e 381c dbbe
00000190: e8be 293f c7f3 80be 24cf 513d 035a d03c
000001a0: a2ed a03c fa9c 5cbe b368 a3be 10fa d0bd
000001b0: 01ee 853d d3a7 27be 52ed 1e3e 6eb4 c73d
000001c0: a966 f0bc f14c 9dbd 71bf 88be c06b 103e
000001d0: c854 9abe 18bf b7be 3d83 20bd 0069 8c3d
000001e0: f3f0 2cbe ae76 1dbe 65b9 1fbf 5f62 1dbe
000001f0: 0d90 bfbe 43a5 5ebe 6404 823e f476 0ebd
00000200: dadc 03bf d61f 1bbe 9845 36bc 861d 663c
00000210: d1c1 303e b969 bd3d 877c 7e3e 3a3d b2bd
00000220: e75b 09be d4cd b3bc 12aa 4dbe eba0 83bc
00000230: 3e37 89be 6291 8b3d ba54 783e d9bd 02bd
00000240: b3d6 1a3e 6077 1bbe 7f73 183e 442b 0e3e
00000250: 1080 273d 0008 68bd a2f2 dc3d db6a f43d
00000260: cce8 bd3d 97ad 153e 97c3 ad3d 2313 b23c
00000270: d3ab 353e f647 c7bd a58a b8be 1224 ae3e
00000280: f3d1 423d 3722 983e 5af5 09be 2a50 953e
00000290: 584b 813d 26b7 7e3e 0060 343d 7a46 a0be
000002a0: ea53 78be 3866 543e ae29 5ebc 90b0 193e
000002b0: c439 61bd 0292 b9be 5af1 90be 5d74 8d3d
000002c0: 7844 7cbe 67bd b7be 9c9c c13d 8ca9 c73d
000002d0: 0a5e 823d 26f8 abbe 1c93 883c b5dc e8be
000002e0: d529 f13d 414e bf3d 0c53 953d 1e0d 443f
000002f0: 1a3b 6dbe 2361 1abe 2cd4 b33e 197e 0c3b
00000300: 9724 e13d 045c bd3d ac18 073e df6e b9be
00000310: 4a5c 383d 146e 79be d0a3 ac3e a512 0c3e
00000320: 1e3b 7e3e fd56 5fbd c948 403e f4d8 0b3e
00000330: 2acb 59be 1000 303e 9cf0 23be 00ef 943b
00000340: 1646 093e 0bae 123f 5454 60be 80a1 06bf
00000350: 084c f3bc 3b89 a33e aed8 553c 70a7 813d
00000360: 94b4 a73e 89b7 d33d d814 20be c28e 823e
00000370: 6229 3a3e 60f5 a0be c91b 02be de7e 343b
00000380: 60fe 64be 8c20 2fbe 0305 18bd df11 13be
00000390: 1fad 5ebe 097e c63b 5307 03bd eef6 ea3d
000003a0: e21c c93d f55d 22be 2dd9 3c3c 8ec1 62be
000003b0: 147b 96be b09f e2bc 055f cb3e 111e 16be
000003c0: 415c adbe 1436 82bd 6f8f bc3c 30d7 b3be
000003d0: 7770 fdbb 37ab 42bf 4117 423e 2f47 773e
000003e0: cc7e 1e3c 8673 ccbd b3f0 d1bd 598d 8c3e
000003f0: 4381 10be c2a8 363d dda4 913d 07a3 32be
0.2353462 0.6680214 -0.29454347 0.31985193 0.33083782 -0.024660641 -0.2312135 0.17924811
0.0761421 -0.10260305 0.010887281 -0.09459003 0.13522282 0.11320768 -0.2969365 0.119800076
0.45807278 -0.09842903 0.19278228 0.14897104 0.15863718 0.3379997 0.1124456 0.17585038
0.06311932 0.040099613 0.030259043 -0.28480563 -0.14005387 -0.29904097 0.040073354 -0.12532441
-0.32431734 -0.10019062 0.39368066 0.24976869 -0.08890513 -0.24836133 -0.09713952 0.11832799
0.18543491 0.09900394 -0.2864628 0.19089223 0.09810318 0.34522438 0.23379514 -0.11130463
-0.11575039 -0.13029008 -0.20708297 0.13940385 0.14202039 0.008782311 -0.039872825 0.33453554
0.13819216 -0.5415362 0.022502936 0.575979 0.12826753 -0.42553404 -0.27239284 0.10554311
0.048157442 -0.07887214 -0.19536142 -0.037682325 0.088652305 0.02475153 0.12488305 -0.6379381
0.36310625 -0.16204496 0.030829752 0.028643087 -0.17563051 0.07681114 0.28352425 -0.13633266
0.047403794 0.44901046 -0.0047196695 -0.34135628 0.07763513 0.117674515 -0.066448286 0.1285338
0.23798208 -0.1563937 0.3051636 0.06167231 -0.32190615 -0.38227412 0.44718412 -0.00049072865
-0.12769975 -0.12565328 0.25731078 -0.42794967 0.66306925 -0.25185987 0.051222935 0.025433546
0.019644562 -0.21544257 -0.31915817 -0.10203946 0.06539536 -0.16372614 0.15520218 0.09751211
-0.029345827 -0.07680691 -0.26708558 0.14103603 -0.30142808 -0.3588798 -0.03918766 0.06855965
-0.1688879 -0.15377304 -0.62392265 -0.15369557 -0.3741459 -0.2174273 0.25393975 -0.03478141
-0.5150887 -0.15148863 -0.011124991 0.014045125 0.17261435 0.092486806 0.24852191 -0.08703084
-0.13413964 -0.021948732 -0.20084408 -0.016067943 -0.2679996 0.06814839 0.2425107 -0.031919334
0.15120964 -0.15182257 0.14887808 0.13883692 0.040893614 -0.056648254 0.10788466 0.119344436
0.09272918 0.14617 0.084845714 0.02173764 0.17741327 -0.09730522 -0.36043277 0.34011894
0.047563504 0.29713604 -0.134725 0.29162723 0.06313199 0.24874553 0.044036865 -0.3130377
-0.2425076 0.20742118 -0.013559742 0.1500876 -0.05498673 -0.36244208 -0.28309137 0.0690696
-0.24635494 -0.3588669 0.09453699 0.097491354 0.06365593 -0.3358776 0.01667171 -0.45480886
0.11775557 0.093410976 0.072912306 0.76582515 -0.23167077 -0.15076117 0.35122812 0.0021437465
0.10993307 0.09246066 0.13193005 -0.362174 0.04500989 -0.24358398 0.3371873 0.13678987
0.24827239 -0.054526318 0.18777765 0.1365698 -0.21268907 0.17187524 -0.16009754 0.0045450926
0.13405642 0.5729682 -0.21907169 -0.5259018 -0.02969934 0.31940636 0.013052149 0.06330764
0.32754958 0.10337741 -0.15632951 0.2549954 0.18179849 -0.31437206 -0.12705912 0.002754144
-0.22362661 -0.1710226 -0.037114155 -0.14362286 -0.21745728 0.006057505 -0.031989407 0.11472879
0.09819962 -0.15856154 0.011526388 -0.22144148 -0.29390776 -0.027664036 0.39720932 -0.14659907
-0.33859447 -0.06357971 0.023017613 -0.35125113 -0.007734354 -0.76042503 0.18954183 0.24148248
0.009673785 -0.09982972 -0.10250988 0.2745159 -0.1411181 0.044594534 0.07111523 -0.17445002

fc3.bias f4 [4]
00000000: 4358 153d 9b84 72bd c60b fe3c 02a0 26bd
0.036461126 -0.059208494 0.031011473 -0.04067994
