checkpoint_actor.pth (torch_old, 169466 bytes, 6 tensors)

fc1.weight f4 [256, 33]
00000000: 9e84 213d b893 a23d 6ba5 ac3c 81c4 91bd
00000010: 457a 36bd d9e7 47bd 0722 9b3d 06a8 933d
00000020: ecec 883d a05c cdbc fbee 5f3d 1439 9cbb
00000030: dcc1 2c3d a5f2 173e 47c0 60bd 9fcb 8d3d
00000040: b40d 4c3c 437f 2c3d 38c7 e53b c094 4f3c
00000050: 0cb7 923b bc52 6ebd 901e bd3d 9147 e63d
00000060: 42cc 443d 3897 453d 6af9 9abd 9b5b afbc
00000070: 2c6e 56bd 3475 bdbc f138 ca3c 9098 213d
00000080: e8a4 073d 049b 96bd 5d4a 58bd 9693 04bd
00000090: fa7f c6bd 3564 16be 6383 03be e306 cd3d
000000a0: 329c 003d 3053 933b 8ff4 bcbc 9595 883c
000000b0: e100 76bc 26cd 8ebd 8c0b edbd b69e 93bd
000000c0: faeb 793d 6880 51bd 4f19 0c3d f75d f5bd
000000d0: fa8c 243c 87eb ecbc 4dd8 9ebd 1b07 0c3d
000000e0: 7435 20bb 8093 23be 8970 a0bd 1274 e1bd
000000f0: 30a2 56bd db17 453d 04e7 26bd 36b1 babb
00000100: 8011 503b 8326 e23c 9f7b 473d cf32 5dbc
00000110: bd7d 463d ed55 013b 73de 363b 7ad4 7c3c
00000120: b8be cd3d 2274 b2bb 1783 523d b210 58bd
00000130: 433e 20be 1f2d 4e3d 2761 993d 4478 0bbd
00000140: 6899 4d3d 6d45 983d 7edf 6c3c 193e 31bc
00000150: 7f2a 22bc a332 5c3c d766 f2bc 3c49 57bd
00000160: 26a7 093d 4501 95bc 28ff 1c3d 0b19 44bd
00000170: 45d5 2dbd bcac 7cbd 8dfe c23d 786d 473d
00000180: 6f52 1fbc 56b3 353d aeb8 983c 8b46 febd
00000190: c26e 02bd 1bdd 84bd d408 a1bc 6094 2fbd
000001a0: 6c18 00bd c822 b1bb 4c2e 45bc 97c8 c13d
000001b0: dee1 5abc 3b76 49bd 06e2 1bbd f368 7bbd
000001c0: c3e3 efbc 9a3e 00be 6e01 a7bc a2e1 59bc
000001d0: 202c 4fbc 85de 94bd f96c 733d d4e2 05be
000001e0: bfa5 8d3d c875 d13d 23f0 34bd 33de b6bc
000001f0: 0bc6 1b3d 72e3 983c 5bc4 82bd db98 d53d
00000200: 1883 153d 5595 68bd 680e e7bc b896 9ebd
00000210: 0888 4d3d 3262 863c 4393 7abd e203 783d
00000220: 28a1 4f3c bfad 143d 9a13 6cbd fcaa 4a3d
00000230: b158 4b3a 7db1 04be 90b7 793d acae b43c
00000240: b0ee 053c 56ba d63d e435 2dbd a075 8ebc
00000250: d652 91bd 0906 a3b9 c459 8d3c cea3 0e3e
00000260: eb55 36bd 9359 b43d 5143 a8bd 6c38 073e
00000270: 81e6 0dbe 6be6 573c 461e 0dbe 8f4c 85bd
00000280: 7012 d8bd a602 3c3d 285f 6dbb 1858 763d
00000290: d0dd e33c 84a6 09bd 7767 28bd 1211 c9bd
000002a0: dc58 053d 0858 893d ff2d 5b3d cde1 76bd
000002b0: 995b 9e3d 8a93 37bd e488 a63d b32a 02bd
000002c0: d334 453c c479 86bb 8e0d 5bbe 920c a2bd
000002d0: 5029 97bd 17f2 9b3c aec1 373d 84f6 1a3c
000002e0: 0464 9a3d a33c 873d 6aa3 adbc aefa e03c
000002f0: bdb7 fbbd 06d6 32bc 0eb2 4e3c 269b 5d3d
00000300: 0605 8dbd d395 453d dc1d 4ebd 71cc 553d
00000310: 2095 613b 1395 8b3d df99 d4bd 58fd 1bbe
00000320: f467 2cbc 5409 85bc 89d0 373c 6bbb 66bd
00000330: a19c 8e3d d03a 163e 5076 893c 309d ed3c
00000340: 4af2 e73c 78ab e9bc c632 133d 4fc2 14bd
00000350: 3759 f6bd b037 84bd 3845 45bd d0b8 f03c
00000360: 5385 113d 9078 183e 344e 1b3e 7de5 e1ba
00000370: 70ce adbb cb5a 40bc 4e81 333d e2a3 ce3d
00000380: 8325 133e 559e 923c ffab 153e 1864 0ebc
00000390: ee59 3b3d f040 2b3d f341 2bbd 5fcf 1abd
000003a0: a2c4 61bd 6c6b 4e3d 4be7 09ba 655d 49bc
000003b0: 53ed 9ebb 7682 323c e4a7 02bd 4bc3 c4bd
000003c0: ff73 c0bd ebb4 2e3d df66 ef3d 83b0 d93c
000003d0: 4052 8f3c 9167 4fbd c81a 063e eeae bb3c
000003e0: 40cb 16bd 18ad a53d 4bb7 45bc 4e66 adbc
000003f0: f282 c23d cd30 e3bd 430d 733d 653e 87bd
0.039433114 0.07938331 0.021074971 -0.07117558 -0.0445502 -0.04880509 0.075748496 0.07209782
0.06685814 -0.025068581 0.05467127 -0.0047675464 0.042177066 0.14838655 -0.05487087 0.06923603
0.012454439 0.042113554 0.007012274 0.012669742 0.0044773873 -0.05818437 0.09234345 0.11244119
0.048046358 0.048239917 -0.07567103 -0.021405986 -0.05235116 -0.023127176 0.024685355 0.039452136
0.03311625 -0.07353786 -0.052805293 -0.03236731 -0.09692378 -0.14686663 -0.12843089 0.10011079
0.03139896 0.0044960007 -0.023065833 0.016672889 -0.015014858 -0.06972723 -0.11574468 -0.07208006
0.06101606 -0.05114785 0.034203824 -0.11980813 0.010043377 -0.028920902 -0.077561 0.034186464
-0.0024445923 -0.15974236 -0.078339644 -0.11008467 -0.052400768 0.048118453 -0.040747657 -0.0056973947
0.0031748712 0.027606254 0.04870188 -0.013500883 0.048459757 0.0019735054 0.0027903586 0.015431518
0.10046142 -0.005445973 0.05139455 -0.052750297 -0.15648751 0.050336 0.074892335 -0.03405024
0.050195128 0.07435117 0.014457582 -0.010818028 -0.009897827 0.013439807 -0.029590053 -0.052560076
0.03360667 -0.018189082 0.038329273 -0.047875445 -0.042439718 -0.06168817 0.09521208 0.048688382
-0.009724244 0.04436048 0.01864275 -0.12415799 -0.031843908 -0.06487485 -0.01965753 -0.04286611
-0.03127329 -0.0054057576 -0.012034964 0.094620876 -0.013359515 -0.04918502 -0.03805735 -0.061379384
-0.02928341 -0.1252388 -0.020386424 -0.013298424 -0.012644798 -0.07269005 0.059430096 -0.1307481
0.06916379 0.10227543 -0.044174325 -0.02232275 0.038030665 0.018663142 -0.06385108 0.104295455
0.036501974 -0.05678304 -0.028205112 -0.07743591 0.050178558 0.016404245 -0.061175596 0.060550578
0.0126727 0.03629851 -0.05763588 0.04947947 0.00077570515 -0.12958331 0.060966074 0.022055946
0.008174583 0.104847595 -0.042287722 -0.017390072 -0.07095878 -0.0003109428 0.017254718 0.13929674
-0.04451553 0.088061474 -0.082159646 0.13205117 -0.13857462 0.0131774945 -0.1378108 -0.06508743
-0.10550392 0.045900963 -0.0036220048 0.060142606 0.02781573 -0.033606067 -0.041114297 -0.09817709
0.032555446 0.06706244 0.053510662 -0.060273934 0.077323146 -0.04481844 0.081315786 -0.031779002
0.01203652 -0.004103871 -0.2139189 -0.07912554 -0.073809266 0.019036336 0.04486244 0.009458188
0.07538608 0.066033624 -0.021196086 0.027463283 -0.12290905 -0.010915285 0.012615694 0.05410304
-0.06885724 0.048238587 -0.050321445 0.052196924 0.003442116 0.06815543 -0.10380911 -0.15233362
-0.010522831 -0.0162398 0.011219152 -0.05633108 0.06963468 0.14670873 0.016780049 0.029005617
0.028313775 -0.028524145 0.035937093 -0.03631812 -0.12028735 -0.06455934 -0.048161715 0.029385
0.03552754 0.14889741 0.15166551 -0.001723453 -0.0053041503 -0.011740397 0.043824486 0.10089852
0.14369778 0.017897764 0.14616393 -0.008690856 0.04574006 0.041809976 -0.04181094 -0.03779542
-0.055119164 0.050395414 -0.00052606006 -0.012290333 -0.0048500686 0.010895362 -0.031898394 -0.09607562
-0.093971245 0.042653006 0.11689543 0.026573425 0.017495275 -0.050635878 0.13096154 0.022910561
-0.036814928 0.08089656 -0.012067626 -0.021166947 0.09497632 -0.110932924 0.05933882 -0.06603698

fc1.bias f4 [256]
00000000: c366 0ebd 2237 04be be87 5d3e 742f ebbc
00000010: b76d 433d d092 193d d131 c13d 58ee f6bc
00000020: e62b 03be 7d05 ff3d e348 c9bd e817 65be
00000030: 55a3 f53d 000e 3e3d 1389 7c3d ab90 2fbd
00000040: c51d 133d 65fa 5d3d dcca a8bd a8d2 163d
00000050: c808 923d 855a 083e fb2b 553e ea98 e83d
00000060: 80f8 39bb 1fac 5c3d f1a7 dbbd 07e0 f63d
00000070: 4b52 5c3d 7570 cebd 3c02 423e 94a8 043d
00000080: 067d c63d dabf 6a3e 7226 943c 9f3e 4dbb
00000090: 024e 4f3e b4a7 443d 4dbd 8ebd c838 9abd
000000a0: c31b e7bd de5d 523d 0475 c1bd 572f a4bd
000000b0: 336c ddbd f4c8 a9bc d673 903c 77e8 0c3e
000000c0: 95da 883c 8100 373e 6cd6 cb3c 6924 bebc
000000d0: 132f 2dbe a296 2f3e 5237 1d3c 100b a93d
000000e0: 4f47 2e3e b732 a83d 758a a03d 3db0 0abe
000000f0: c917 633d d6f5 2b3e 56c9 4f3d 706c 123e
00000100: 64f0 e93a 5ade 34be db2e a5bc 0f8e fcbd
00000110: c767 2d3e 9241 6dbd 63af 1d3e accc a3bd
00000120: 2e5d e53c 009c 1d3e 8320 d43d f3a6 dfbd
00000130: a252 1c3e b648 a8bd bcbb 64bd 67d7 8fbb
00000140: e2d7 b0bd c355 eb3d e232 e73d 5468 293e
00000150: c9ad bd3b b8b4 0a3e 474a 32be 6450 ee3d
00000160: a6ee 73bd bd8f 20be 67c3 d0bd 7b60 01bd
00000170: 7f7c 193e 97b6 fb3d 84e8 493c 0932 fb3d
00000180: 093a 403e 1249 12be 408a 8cbd e173 20be
00000190: b5b5 b2bd 85a0 a1bc 7982 00bd b4aa f63c
000001a0: 6e18 52be bbf5 36bd bee4 693d 87e0 163e
000001b0: 017e 113e d3dd 1dbe 4d89 bcbc 8641 a0b9
000001c0: 6bd6 acbd 5c66 c7bd 1e7e 70bd b4e1 c4bd
000001d0: a906 ac3d 4e2b d93d aff0 d3bd 0af4 da3d
000001e0: a667 1c3d b17d a03d b010 563d eee9 bcbd
000001f0: 7c8d 273c 2a12 76bb 1681 46be e656 d13d
00000200: 4f20 dcbc 50e7 583e 985f 203e 1898 9bbd
00000210: e9e5 36bd 0ca2 493d 332f df3d ed24 fc3d
00000220: ba64 31bd 9e8d b83d 53d2 c1bc 6eba a63c
00000230: ff73 49be cf4e fb3d 066d f4bd 6f5b 9639
00000240: 6ab3 f2bd 4d95 a9bd e7eb a93d 8d9f c6bd
00000250: e03a 803c de55 8f3d 103e 5bbd 086d f83d
00000260: f9e0 58bd f80a bf3d 9239 d0bd 81f7 363e
00000270: db28 45be f833 443e 1bf0 aebb dcfd 8b3d
00000280: 1a00 2f3e 008e 2d3e f621 1c3d ecee aabc
00000290: 4bb4 c6bd 4c79 893d 5caa 9bbd d330 15be
000002a0: 4dd2 313e b5fb 593e 8359 a43a 73d1 403e
000002b0: e125 5e3d abfe 13be 84d3 c1bd 9845 e53d
000002c0: e90a 4a3c a803 6fbd 2dcd 713e cddb f5bd
000002d0: 9d13 72bc 4e07 643e 12ed c9bd 04c0 12be
000002e0: 7d6f 24bd d973 ab3d 39bd 08be 8741 073e
000002f0: 7b4c 313e 787e 483e 6f82 1c3b a434 a73d
00000300: af64 3abd 0f06 013e b652 e23d b739 d03b
00000310: 7819 fb3d f928 d23d 89fd debd a678 14be
00000320: cd09 d13d 68f0 6c3d 5b23 0d3d 029a d83d
00000330: 34e1 4c3e b424 24bd 369d 8dbd 6e5a a2bc
00000340: 35b3 013c 730b 9b3c ff81 8abc 3165 4abd
00000350: fa2a 2e3e dff4 3ebd 55cb f8bd c911 3c3d
00000360: 7d13 5a3e ce40 b2bb 4144 353e 1146 633d
00000370: 866f bb3d 436f 053e 9a7a 2a3e c85a b4bc
00000380: 0ba0 933d 5cc6 1f3e bec0 c33d 0f39 0f3d
00000390: c3ff 5fbd 2e31 6f3d 722d ea3b 4166 77bd
000003a0: 2560 91bd 8127 423d 168a 4b3d 55bf d8bb
000003b0: 201a 113e c44e 893d 8329 4f3d 5095 bbbd
000003c0: 5d2a a7bd 8cc5 5cbd de31 e83d df8e d83d
000003d0: 5717 3dbd f6c7 ee3c 25a4 ec3d b692 d3bc
000003e0: ccde ad3d ed54 4b3e b18f a2bd 23e1 1abe
000003f0: e7e8 c2bd b0ad 5e3e 6343 523e 61ac 0abe
-0.03476597 -0.12911656 0.21633813 -0.02870915 0.047712054 0.037493527 0.0943333 -0.030142948
-0.12809715 0.12452219 -0.09828355 -0.22372401 0.11994044 0.04640007 0.06165416 -0.042862576
0.035917062 0.054193873 -0.08241817 0.03682199 0.07130581 0.1331578 0.20817558 0.11357291
-0.0028376877 0.053875085 -0.10725392 0.120544486 0.05378942 -0.10080043 0.18946165 0.03238733
0.09691815 0.22924748 0.018084738 -0.0031317843 0.20244601 0.048011497 -0.069697 -0.075303614
-0.11284592 0.05135905 -0.09446147 -0.08016842 -0.10811653 -0.020725705 0.01763336 0.13760553
0.01670579 0.17871286 0.024882518 -0.023210721 -0.16912489 0.17147306 0.009595709 0.08254063
0.1701939 0.08212798 0.078389086 -0.13543792 0.055442605 0.16792998 0.05072912 0.14299178
0.0017848131 -0.17662945 -0.020163944 -0.12331783 0.16934119 -0.05792386 0.15398936 -0.079980224
0.027998533 0.1539154 0.103577636 -0.10920515 0.15265897 -0.082169935 -0.0558431 -0.0043896916
-0.086349264 0.11490967 0.11289002 0.16543704 0.005788539 0.13545501 -0.17411147 0.11636427
-0.059553765 -0.15679832 -0.1019352 -0.03158615 0.14988898 0.122906856 0.012323502 0.12265403
0.18772139 -0.14285687 -0.068623066 -0.15669204 -0.08726064 -0.019729862 -0.03137443 0.030110694
-0.20517132 -0.04466794 0.05710291 0.14734088 0.14208223 -0.1541665 -0.023014689 -0.00030566397
-0.084393345 -0.097363204 -0.058714025 -0.09613362 0.08399708 0.10603963 -0.10348641 0.10691078
0.038184784 0.07836474 0.05226201 -0.09224306 0.010226604 -0.0037547448 -0.1938518 0.10221653
-0.026870875 0.21181989 0.15661466 -0.07597369 -0.044652853 0.049226806 0.108976744 0.123117305
-0.04330895 0.09011386 -0.02365986 0.020352568 -0.19673155 0.12270891 -0.11934857 0.00028678353
-0.11850627 -0.0828043 0.08296948 -0.09698401 0.015653074 0.069988 -0.053525984 0.12130171
-0.052948926 0.09328264 -0.10167231 0.17867853 -0.19253866 0.1916045 -0.0053386814 0.06835529
0.17089882 0.169487 0.038118325 -0.02086588 -0.09702357 0.06712589 -0.07600853 -0.14569406
0.1736538 0.21287425 0.0012538884 0.18829899 0.054235343 -0.14452617 -0.094641715 0.111949146
0.012331703 -0.058353096 0.23613425 -0.12004814 -0.014775184 0.22268412 -0.09859671 -0.1433106
-0.040145386 0.083717056 -0.13353433 0.1320859 0.17314331 0.19579494 0.0023881455 0.08164337
-0.045506176 0.12599967 0.11050932 0.0063545364 0.12260717 0.10261721 -0.10888202 -0.14499149
0.102069475 0.057846457 0.034457546 0.1057625 0.20007783 -0.040074065 -0.06914751 -0.01981851
0.007916261 0.018926358 -0.01690769 -0.04941291 0.17008582 -0.046620246 -0.121481575 0.0459154
0.21296497 -0.005439854 0.17701818 0.055486742 0.09152131 0.13030724 0.16648331 -0.022015944
0.0720826 0.15603012 0.09558247 0.034966525 -0.054687273 0.05839651 0.007146531 -0.06040025
-0.07098416 0.047400955 0.049692236 -0.0066146054 0.14170122 0.067044765 0.050576698 -0.091593385
-0.08162377 -0.053899333 0.113376364 0.105741255 -0.046164837 0.029148083 0.115547456 -0.025826793
0.08489761 0.19856615 -0.07937563 -0.15124945 -0.09517079 0.21745944 0.20533518 -0.1354232

fc2.weight f4 [128, 256]
00000000: 2d37 b43a d64f 033e 1002 f4bc 4672 b83c
00000010: 2295 18bd b4ba b13b 381f 353e 5833 923c
00000020: 2be1 2e3d 6d6c bcbd 9625 14be 2ea9 4cbc
00000030: 996c 96bc 1ad6 bdbc d24c 2d3d 81b4 68bc
00000040: 3661 313d ff19 bebc 8e61 413c b500 ac3d
00000050: fd10 af3b 9b92 87bc fbf5 74bd 5abb 77bd
00000060: 3b8d e1bc dbc3 7c3d d834 8c3d 11aa 04bd
00000070: 6321 46bd 2e60 8ebd ec89 253d fda4 bdbd
00000080: d57f 4d3d f94c 003d 2570 bf3d 9add b0bc
00000090: 4dd1 603d bafa 063d 9120 d7bc c158 9e3d
000000a0: 57fb 853d d9de 273e 708c 943d 90ab a83d
000000b0: d0d4 353d ff1f df3d 945a a13d 8b8d dabd
000000c0: cab2 f7bd eada f83c 356b 60bc fe45 f6bc
000000d0: be6f 90bd 7806 993d d310 06be 0c4c 0b3e
000000e0: 1f61 473d 8e91 d73c 3c91 6cbd e231 a1bc
000000f0: d337 053e 33c1 393d e348 b43d c16d 313e
00000100: bf2f cdbb 2118 07be e91b 263a 1413 2c3d
00000110: 2c28 633e 99f3 43bd c51d 903d 3af8 59bd
00000120: 1dcb af3c 8209 db3d c02c a7bd 6f6c ecbd
00000130: 895f afbd d8e9 e93b a3d3 acbc ec36 e2bd
00000140: d123 a1ba 2ac3 cc3d b94d af3d 4247 023e
00000150: bb89 833d dd8d 0f3e 58c7 923d 89a8 ee3d
00000160: 023d 77bd 9fb9 ccba 562e 253e f289 a4bd
00000170: 852c 6ebc 3119 40bd 30b2 8e3c 3f73 a5bc
00000180: 1e60 8c3c 20fe 873d c7c4 123d 2b30 163e
00000190: d7a7 d23d 2958 ca3b 02b9 4e3c cf9b 3b3d
000001a0: ddea f5bb 5076 bfbd f3e5 ec3d ad96 fb3d
000001b0: 0123 0a3e f325 1d3d 9f1b c83d 7e1b 8a3d
000001c0: b482 093d f28e 023e e34d 8ebd 41cb 8f3d
000001d0: d4a6 66bd f085 b63d 7b58 05bd 0631 3b3c
000001e0: 3283 463d 8c7f 55bd 53af 88bd 6c34 3c3d
000001f0: 73f4 5bbd 657b be3d 0c31 17bd 4292 dfbb
00000200: 3da4 62bd 934a 3fbd 244c b83d 8c41 7339
00000210: 85c9 f3bc b416 c43c 661c af3d 7e17 653d
00000220: fb81 8bbc f6f5 173e 3d58 5dbd aa59 c3bc
00000230: b6be 0bbd ac6c 89bd c1cb 573d a2bc 0f3e
00000240: 2c82 89bd d9a5 dc3d 79ac 3a3d 0a29 a83d
00000250: 0b72 3b3d 3b29 e53b bdb4 a8bc 0406 cf3d
00000260: 8242 b53c 68b2 03bd 6463 e9bc 1096 b53d
00000270: d039 28bc 17d0 05bd 5c85 fc3c 9103 9a3d
00000280: ced7 333c 4a72 cbbd 8552 04bd 83ae e93d
00000290: 8f41 8b3c 4f8b 513e f730 b93d 0cf7 d3bc
000002a0: d2f7 323c ef9f b73d d887 ce3d 17f3 87bc
000002b0: c7ad 973c db5b 003e 6378 8fbd c0b6 e33b
000002c0: f31d 0fbe 6edb abbc 251f 07be 91be 033e
000002d0: b2b9 293d bb71 18bd d087 c03c 9bc5 1abe
000002e0: bd25 0c3e dc00 89bc a56d c53c e4d7 273d
000002f0: ce85 7fbd e66f a43d 4c9a 743d da5e aabd
00000300: 627d 1f3a 1e46 9a3d f17a 8ebc 8bb1 463d
00000310: c7ca a13c 0654 0c3d a29d 47bd 2447 cebb
00000320: 7fc6 053c 4260 e1b9 b910 9dbd 62bd 34be
00000330: 5252 bcbc fe1b a93c a0d3 803d 7981 f5bc
00000340: 0f6c b53d 6f78 80bd a3a7 ac3c f7da 673b
00000350: 97a6 da3d ed3d 5c3d ae09 ef3d 1f83 4dbd
00000360: b11c 8ebd 5e88 a23d 12d0 5dbc 3783 1a3d
00000370: 80da d7bd 1f8a 2a3d 1e9f b33c 37f7 d6bc
00000380: 22ff 013e 9716 d4bd 7005 513d 0ca6 e73d
00000390: 7c01 bdbd d3bb 87bd 70f6 cf39 b13c e83d
000003a0: 32f2 d7bd 448e 82bd 7df7 9cbb 1b01 ba3d
000003b0: 4640 30bd cfcc b2bd 8e44 00bc 3c7a 78bd
000003c0: 15c7 a9bd fca2 f33d 1ed3 843d 7a80 ab3d
000003d0: a040 af3c 6b06 243e c0dd a0bd 1a0f 053e
000003e0: 4bf4 c63c 0140 483d 3e0b 293d cecf 013e
000003f0: 8131 2fbd 3136 233e 25a0 b6bb 331f ffbd
0.0013749354 0.12823424 -0.02978614 0.022515427 -0.0372516 0.005423868 0.1768769 0.017846748
0.042695206 -0.09200368 -0.14467463 -0.012491507 -0.01836233 -0.02317338 0.04230959 -0.014203192
0.0433056 -0.023205755 0.011803044 0.08398572 0.0053426013 -0.0165494 -0.059804898 -0.060481407
-0.027533164 0.06171022 0.06846017 -0.03238875 -0.048371684 -0.069519386 0.040414736 -0.09259985
0.05017074 0.031323407 0.09347562 -0.021590043 0.054887105 0.032953955 -0.026260646 0.07731772
0.0654208 0.16393603 0.07253349 0.08235848 0.044392407 0.10894775 0.078786045 -0.106715284
-0.12094648 0.030377824 -0.013697435 -0.030062672 -0.07052563 0.07471937 -0.13092355 0.13603228
0.048676606 0.026314523 -0.057755694 -0.019677106 0.13009576 0.045350265 0.088029645 0.17327024
-0.0062617953 -0.13192798 0.00063365564 0.04201038 0.22183293 -0.047839735 0.07036928 -0.053215243
0.021459157 0.10695173 -0.08162832 -0.115441196 -0.08563144 0.007138472 -0.02109701 -0.11045632
-0.0012293999 0.09998162 0.08559746 0.12722495 0.064227544 0.1401896 0.07166928 0.11653239
-0.060360916 -0.0015619284 0.16130957 -0.080341235 -0.0145369815 -0.046899024 0.01741895 -0.020196555
0.017135676 0.06640267 0.035832193 0.14666812 0.10285919 0.0061750603 0.0126173515 0.045802888
-0.0075048045 -0.09348738 0.11567297 0.122845985 0.13489915 0.03836627 0.09770893 0.06743525
0.033571914 0.12749842 -0.069484495 0.070211895 -0.056311443 0.08912265 -0.032555085 0.011425262
0.04846496 -0.05212359 -0.066740654 0.04594843 -0.05369992 0.093008794 -0.03691201 -0.006822855
-0.05533241 -0.04670198 0.08998898 0.00023198704 -0.029759178 0.023936607 0.085503384 0.055930607
-0.017029753 0.1483992 -0.05403923 -0.023846466 -0.034117423 -0.06710181 0.05268455 0.14036801
-0.067142814 0.107738204 0.04557464 0.082109526 0.045763057 0.0069934404 -0.020593995 0.10108569
0.02212644 -0.032152563 -0.028489776 0.08866513 -0.01026769 -0.032669153 0.03082531 0.075202115
0.010976745 -0.09933908 -0.03230526 0.114102386 0.016999034 0.20463298 0.090425424 -0.025874637
0.010923343 0.08966052 0.10084504 -0.016595406 0.01851548 0.1253504 -0.07005384 0.0069492757
-0.13976268 -0.020978656 -0.13195474 0.12865664 0.04143686 -0.037217837 0.02350226 -0.15114443
0.13686271 -0.016724043 0.024100134 0.040977374 -0.062383465 0.080291554 0.05971746 -0.08318873
0.0006084052 0.07532905 -0.017392607 0.048509162 0.019750012 0.03425982 -0.048734315 -0.0062951017
0.008165001 -0.00042987062 -0.07669205 -0.17650369 -0.022988472 0.02064323 0.06290364 -0.029968964
0.08858501 -0.06272971 0.02107603 0.0035378316 0.10676306 0.053769995 0.11671768 -0.050173875
-0.06939066 0.07936166 -0.013538377 0.037722792 -0.105397224 0.04163563 0.021926459 -0.026240928
0.12694982 -0.10355871 0.051030576 0.11310968 -0.09228799 -0.066276215 0.00039665727 0.11339701
-0.10544242 -0.06374791 -0.004790245 0.09082242 -0.043030046 -0.087304704 -0.007828845 -0.060663447
-0.08289925 0.11896321 0.0648558 0.08374114 0.02139312 0.16018073 -0.078547955 0.12994042
0.02428641 0.048889164 0.041270487 0.12676927 -0.04277182 0.15938641 -0.00557329 -0.12457123

fc2.bias f4 [128]
00000000: fea4 583d 81f6 d7bc d3f3 a03d 9d61 16bc
00000010: 860a 443d dfb4 243d 41a5 b83d ee15 ac38
00000020: 6f54 983c c00d 60bb 3d7a 553d 4bc9 f33c
00000030: 7d00 66bc 0f41 0bbd 59f8 a53c e2ed 01bd
00000040: 9ca0 1abd 5fc7 1d3d efd6 c63c 9227 233d
00000050: d455 0b3d be10 d43b 70df 7e3d a599 edbb
00000060: fa27 c13d 2a1e 843c 2f35 923d 743f 88bb
00000070: 8189 9d3d 37fc 3a3d 532f 653d 0aa1 b1bc
00000080: 40df 2cbc 1c94 123d c031 c83c 1654 9a3b
00000090: c361 32bd ef70 29bd f944 973c 1dff 703d
000000a0: bba9 14bd 838f 70bd 15bb d23c 13c7 983d
000000b0: 9b23 2c3d 3b42 a43c b87b cdbc c5a9 f33c
000000c0: ac3d 9d3d f61b a43d ab31 d43c 9205 903c
000000d0: 220d 0fbd 04c5 4e3b db5c 083d d46b 47bc
000000e0: 9cb1 e6bc c523 ae3d 4bf9 663d cced 6cbb
000000f0: 5ab0 dc3b f3be 9d3d 48bc 8a3d 3f4d 243d
00000100: 8a37 873d 5f58 11bd 03e3 13bd 9618 db3c
00000110: e80d 933d 89dc 3d3d 3497 88bc 77ce 423d
00000120: 5289 573d 553c 2fbd 1690 513d e435 b93d
00000130: f865 b83d 04ac 143d aa8d b2bc d2d8 273a
00000140: b439 013d 0fca cfbc c942 573d 23db 06bd
00000150: b3f4 5abd 3bb6 d1bc 29ca 8b3d 8c4f 943d
00000160: 4189 eabc be62 e2bc 81d4 d43c 6eb1 e33c
00000170: 998e d73c f544 b5bc 8458 313a 10f4 873c
00000180: 397f a53c 7ba3 413c 1b9f 2d3d e7cc 0cbd
00000190: ad15 41bc 4889 b93c 9f9d b53d ff2a 613b
000001a0: 744b ecbc 4acb 8bbc 8e2e 193c c46f 613d
000001b0: 8ec6 ebbc edf0 1f3d 5d0a 443d a2bb de3c
000001c0: c098 393d 5dd5 3a3d d127 5cbd 22ea 563b
000001d0: 3bc5 3f3d 68bd 9d3c 272b 84bc f673 023d
000001e0: ebf8 603d 58bf 9d3d 4ba3 ad3d 538c 533c
000001f0: c2aa 123d 5a52 fb3c b2df 4e3d 2702 323d
0.052891724 -0.02636266 0.07859006 -0.009178546 0.0478616 0.040211555 0.09015895 8.205684e-05
0.018594949 -0.0034187883 0.05211853 0.02975907 -0.014038202 -0.03399759 0.020260023 -0.031721003
-0.037750825 0.038520213 0.02427241 0.03983266 0.0340174 0.0064717224 0.062224805 -0.007250982
0.09431453 0.016127665 0.0713905 -0.004157955 0.076922424 0.045650687 0.055953335 -0.021683235
-0.010551274 0.03578578 0.024437785 0.004709731 -0.043550264 -0.041367467 0.018465506 0.058837045
-0.03629468 -0.058730613 0.025723973 0.074598454 0.042026144 0.020051112 -0.025083408 0.029744038
0.076777786 0.080131456 0.02590259 0.017580781 -0.034924634 0.0031550536 0.03329168 -0.012171704
-0.028160863 0.08502916 0.056390088 -0.003615248 0.00673489 0.07702436 0.06774193 0.04011273
0.0660239 -0.035484668 -0.036105167 0.026745122 0.07180387 0.046352897 -0.016673662 0.04756018
0.052621193 -0.042782146 0.0511628 0.09043482 0.09003824 0.03629686 -0.021796066 0.0006402853
0.03154917 -0.025364904 0.052553926 -0.03292383 -0.05345602 -0.02559959 0.06825668 0.07241735
-0.0286299 -0.027634975 0.025980236 0.027794566 0.026313113 -0.022127608 0.0006765204 0.01659587
0.020202266 0.011818762 0.042388063 -0.034375098 -0.011784953 0.022648469 0.088679545 0.0034357903
-0.028844573 -0.01706471 0.009349478 0.05503823 -0.028781202 0.039048124 0.047861446 0.02718908
0.04531169 0.045613635 -0.05374891 0.0032793363 0.046818953 0.019255355 -0.016133858 0.03184887
0.054924887 0.077025115 0.08478411 0.012911874 0.03580738 0.030678917 0.0505063 0.043459084

fc3.weight f4 [4, 128]
00000000: b4ee b1bd a560 1cbe 500c 5e3c 7faf 54bd
00000010: ec50 ed3c b5a1 6abc a9e3 48bd 5511 1ebe
00000020: 51d7 38bd 5abc b73d 7b43 e9bc 46ee 713d
00000030: 2aa0 d03c 3d03 41bb 152b 213e c906 953b
00000040: 85b9 cd3d 06fb cfbd 9d95 80bd 9f2e 50bd
00000050: 85d8 97bd 1e66 abbd baa2 a1bd 8a98 943d
00000060: 8ec8 f73d 1638 30bc e7d9 cabb 4c62 a53d
00000070: daea 803c dccc 18bd 2863 8ebd 7be2 e33c
00000080: 0f01 8d3d 3bc0 61bd 5682 e93a 1a4e 153e
00000090: a12c 29bd d871 3b3d 19bf 0d3d 26ef 613d
000000a0: 33ed 873c be30 5dbb b6b6 9bbc 8ba9 e5bd
000000b0: f296 f8bc 3696 263d 41c3 95bc 36f4 9fbd
000000c0: b9cf 85bd b211 33bc 58aa 833c 720f 853c
000000d0: b0c4 94bd 44c7 823c 2f6d 053d 9986 f2bd
000000e0: b233 d8b9 c51a aa3c 1088 123e b745 2ebd
000000f0: 7ecf d4ba a843 883b 42bc ffbc 06f5 103d
00000100: ac6c 99bc 188d b7bd 815e babc fca2 af3c
00000110: e288 993d f096 48bd aadc c83d 7820 b8bd
00000120: 0a76 9abd 355b c73d 1c65 26bd 93c4 9ebd
00000130: f0e6 fdbd e853 5f3d f156 983d 90d6 15be
00000140: 06c5 f93c 879b 5b3d d23e 4c3d 6b90 0cbd
00000150: 2194 8fbd 3ade a93d cc59 adbd 4610 4abd
00000160: cd7c 4abd 0ccb 62bd 6a88 203a 80f5 25bd
00000170: 9ac3 8b3b 6599 8f3d 9328 4a3a 4aa2 903c
00000180: 9612 593c f938 8a3d fe5f 50bd 3f04 d43d
00000190: 3f90 dbbd 6105 e4bd edb1 ddbd 14d9 30bb
000001a0: 2ea0 353c 43dc a23d d8a0 f1bd cf5d ddbc
000001b0: dfd7 00be c877 0ebd 16c4 e1bd 05d3 4cbe
000001c0: 07e6 d5bd 2b7c 96bd 4211 f6bc 01d8 c7bc
000001d0: e25b 2f3d a3f0 c93c 2da6 ad3d f96b 343e
000001e0: 149c ff3b 5151 813c bd1c 543d 160e ca3c
000001f0: df23 183e 61f0 373e 4fd8 90bd 4574 9ebc
00000200: 7359 28bb 3a32 bdbd 6f4f 2c3d e618 873d
00000210: 31db f13b 4e35 5cbc d0a1 75bd d059 70bd
00000220: dde0 a2bd 779a bf3c 2a92 483b 5f13 493c
00000230: 642d 32bd 5ac1 1d3c e904 a0bd d060 1d3c
00000240: 0503 e9bc 444c ecbc 3456 a1bd 84e0 a7bd
00000250: b99a 35bd da1a d8bd 044c 933d 0d93 afbc
00000260: 99fe 78bd ab2a 10be d767 a43b 6699 6e3d
00000270: b049 633d 4dea a23d 5bd8 5c3d 64be ab3b
00000280: 9350 133d 363b a33c f4bc 963d a27f dcbd
00000290: 99d3 1dbd d84b ec3c 5ed5 113c 2319 6bbd
000002a0: 1670 063d 354b c6bc add2 ca3d 0504 323e
000002b0: 38f3 0e3e c377 a3bc 6cf5 483c 4c89 2e3b
000002c0: cf7c f0bd 687f 13be bfc2 e03b d2fe aaba
000002d0: 355f bfbc 618c 19be cf43 2abb 1647 2bbd
000002e0: da91 233d ef5f 90bc 5f0b 893d 9b6a 4fbd
000002f0: 301d 9a3c 9345 663d 2fe3 7c3d 0c49 8d3c
00000300: 98b0 d33d a2cb f9bd 45be 43bc e6be b0bb
00000310: 4f1c 3abc 47ae 3c3e ecd6 f63d 6d28 dfbd
00000320: 2e73 c73d a227 58bd aa52 0d3e e24b babd
00000330: 0353 35be e5cd 73bd 564c f43d 6b1e ffbd
00000340: b120 d83d e832 ecbc 96e6 3c3c 6b3c 6abd
00000350: f9b9 a8bd ddaf 003e 7f03 f8bc 0b5b 5d3a
00000360: 2d92 1d3e c2b6 2d3e 4984 efbc 8519 483d
00000370: 45dd 8d3d a8dd 223d a9c8 963c 037b a03d
00000380: 8a44 bcbb 9599 a73c 69eb 32bd 4595 97bd
00000390: 9ae2 a9ba c023 97bd 1fc4 afbd 9bd3 283c
000003a0: 35c6 ed3c 776f a03d afd0 1f3e ee80 5e3c
000003b0: eab9 bdbd 4a33 983d 20a8 e4bd 779b e9bd
000003c0: bf46 cabd 0996 633d a4c7 45bd 0a24 aa3d
000003d0: 9dc2 3d3d 2530 823c 730b 023e 0ef6 db3d
000003e0: a144 c23c b7dc d8ba 28dd f83c 09af c03c
000003f0: 8778 2a3d c820 4dbc 4963 a93d 2042 293e
-0.08688107 -0.15271242 0.01355274 -0.05192518 0.02896925 -0.0143207805 -0.04904524 -0.15436299
-0.045127217 0.08971472 -0.02847456 0.059065126 0.025466997 -0.0029451393 0.1573909 0.004547928
0.10045151 -0.10155301 -0.062785365 -0.05082571 -0.07414345 -0.08369087 -0.07892366 0.07255657
0.120988 -0.010755559 -0.0061905268 0.08075389 0.015736986 -0.037304744 -0.06952506 0.027817955
0.068849675 -0.055114966 0.0017815332 0.14580575 -0.041302327 0.045762867 0.034606073 0.05515971
0.016592598 -0.0033750976 -0.019008022 -0.112139784 -0.030345414 0.040670596 -0.01828158 -0.078102514
-0.065337606 -0.010929512 0.016072437 0.016242716 -0.07264078 0.015964158 0.03257483 -0.11842079
-0.00041237246 0.020764718 0.14309716 -0.042546954 -0.0016236154 0.004158456 -0.031217698 0.035389923
-0.018728577 -0.08962458 -0.022750141 0.021440022 0.074968114 -0.04897207 0.09807713 -0.08990568
-0.075420454 0.09734193 -0.04062377 -0.07752337 -0.123975635 0.05452338 0.07438458 -0.1463263
0.030489456 0.05361512 0.049864598 -0.034317415 -0.07010675 0.082943395 -0.08464393 -0.049331926
-0.049435426 -0.05536942 0.0006123843 -0.04051733 0.004265261 0.070116796 0.00077117345 0.01765551
0.01324906 0.06749148 -0.050872795 0.103523724 -0.10720872 -0.111338384 -0.10824952 -0.0026984857
0.011085553 0.07952168 -0.11798257 -0.02702227 -0.12582348 -0.0347822 -0.110237285 -0.20002373
-0.10444265 -0.07347902 -0.030037526 -0.02439499 0.042812236 0.024650877 0.08478961 0.17619313
0.0078005884 0.015785845 0.05178522 0.02466492 0.14857434 0.17962791 -0.070725076 -0.019342551
-0.0025688082 -0.092380956 0.04206794 0.06596546 0.007380866 -0.013440443 -0.05996877 -0.058679402
-0.079530455 0.023389084 0.0030604699 0.012272685 -0.04350032 0.009628618 -0.078134365 0.009605601
-0.028443823 -0.02884496 -0.0787777 -0.0819712 -0.04433701 -0.105519965 0.07192233 -0.021432424
-0.06078968 -0.14078777 0.0050172615 0.05825176 0.055490196 0.079548456 0.05391727 0.005241202
0.035965513 0.019925695 0.07360259 -0.107665315 -0.038531873 0.028844759 0.008900968 -0.05739702
0.032821737 -0.024205783 0.099034645 0.17384346 0.13959968 -0.019954568 0.012265544 0.0026632128
-0.11742555 -0.1440407 0.006859153 -0.0013045913 -0.023360828 -0.14994957 -0.0025980358 -0.04181584
0.039934017 -0.01762387 0.06691622 -0.050638776 0.018812746 0.056218695 0.061740097 0.017246746
0.10336417 -0.12197043 -0.011947219 -0.0053938506 -0.011359288 0.18425857 0.12052712 -0.108963825
0.09738766 -0.05277217 0.13801065 -0.09096505 -0.17707448 -0.05952253 0.119286224 -0.12456974
0.105531104 -0.028832868 0.011529585 -0.057186525 -0.082385965 0.12567087 -0.030275105 0.00084440474
0.15387793 0.16964248 -0.029237883 0.048852462 0.069269694 0.03976217 0.01840623 0.078359626
-0.005745475 0.020458976 -0.043681536 -0.07401518 -0.0012961209 -0.07379866 -0.08582329 0.010304357
0.029025177 0.0783376 0.1560695 0.013580544 -0.09263976 0.074316576 -0.1116488 -0.11406606
-0.09876775 0.055563007 -0.048286095 0.08307655 0.046328176 0.015892098 0.1269968 0.107402906
0.023714365 -0.001654527 0.030378893 0.023520963 0.04161885 -0.012520023 0.0827089 0.16529131

fc3.bias f4 [4]
00000000: 7db5 b43c 060d 00bc 4241 55bc ab10 643c
0.022059197 -0.007815605 -0.013016047 0.01391999
