checkpoint_critic.pth (torch_old, 169965 bytes, 5 tensors)

fc1.weight f4 [256, 33]
0.021632437 0.09577895 0.023468425 -0.032198656 -0.04940521 0.009894907 0.044680133 -0.023627494
-0.043826066 0.09038124 0.048953883 0.0011625168 -0.0071659004 0.09409245 0.14984778 0.023069141
0.14567934 -0.04899623 0.0054034526 0.068950154 -0.034501363 0.054663405 -0.018595897 0.05221063
0.030570328 0.0210009 -0.08996033 -0.0065507893 -0.029932871 -0.050394535 -0.054660726 0.040429823
-0.09945531 -0.0018299124 -0.09836606 -0.0013312176 0.0046512866 -0.014596021 0.03626682 0.007009226
-0.04122895 0.049157932 -0.08928182 -0.015336286 0.0011167476 0.0008833858 0.051839452 0.030355623
0.042663783 0.046498295 -0.013084631 0.008336719 -0.0074088327 0.017135374 -0.034162696 0.059443243
0.018718788 -0.022501556 -0.017688746 -0.044395246 -0.09718957 0.07605012 0.020014852 0.08313493
0.0048096925 -0.27619293 -0.011891592 0.02236644 -0.02294287 0.010872618 0.07943305 -0.028976224
0.04072353 -0.013418606 -0.049504727 0.0012811545 0.0075557088 0.021913506 -0.061551694 -0.009099476
0.046832975 -0.025718056 0.020464452 0.0015935287 0.031346217 -0.07798976 0.0111882035 0.0032013867
-0.030212915 -0.023895703 0.0068959943 -0.08864087 0.03913915 0.053055804 -0.037087183 -0.0031918436
0.014106079 -0.054345243 0.42385018 0.08104666 -0.032559007 0.081317335 0.05915173 -0.016989106
0.007041223 0.011265622 0.018199394 -0.07573293 -0.026923856 -0.0072730854 0.03534272 -0.0014757728
-0.04199956 0.031858433 -0.01622043 -0.0070120296 0.0042429557 -0.040634215 -0.017641423 -0.010425749
0.040029738 0.010924936 -0.007798692 0.0017356782 0.011716601 0.04310346 0.039781626 -0.02909017
-0.02473484 0.063098036 -0.010972619 0.39467964 0.0044854535 -0.047035497 0.0007096776 0.019216992
-0.026863683 0.012957191 0.07260711 0.05450868 -0.0208051 0.05487773 -0.041976802 -0.04186799
-0.04560418 0.02880666 -0.010234863 -0.026151793 0.008034663 -0.019424036 0.01790408 0.07410024
-0.018910298 0.02214795 0.017537627 0.07609415 0.0024593154 -0.020636216 0.0055632093 0.010254835
-0.057726108 0.017925903 -0.017782109 0.016678609 0.2891792 -0.0737642 0.07494631 -0.0012968818
-0.0027415236 0.0028658092 -0.07345803 0.020368744 -0.019830288 -0.052303646 -0.036215167 0.009395456
-0.009308447 -0.01693979 0.113976605 -0.12066661 -0.035947353 -0.016474945 -0.013759296 0.017819982
-0.003348673 -0.0062472564 0.010539936 -0.0054478035 0.0034224794 -0.04396134 -0.003809032 -0.06873712
0.07692489 0.021395074 0.04787697 -0.07290831 0.009369083 0.100379795 0.015934734 -0.09499931
-0.09783145 -0.05428984 -0.07443263 0.013427182 0.03392724 0.05458248 0.07351381 -0.041797277
0.0110783875 -0.070388675 -0.05026551 0.026759088 0.04115403 -0.017790457 0.02663144 -0.08258495
-0.03544027 0.11235897 -0.027488122 -0.031198079 -0.02152764 -0.020783352 -0.019525422 0.031348012
-0.06308301 0.022916866 0.025515813 -0.04773082 -0.049005367 0.0014542788 0.04269458 -0.090985715
0.02945091 0.023688767 -0.06918739 -0.03226884 -0.024545856 0.015984943 0.059108034 0.040286988
0.10678431 -0.04377964 -0.056252405 -0.049835525 0.05491908 0.04605638 -0.045006372 -0.019933434
-0.05024433 0.0933221 0.022962635 -0.0101682525 0.01143411 0.11050343 0.08306125 -0.0071561625
00000000: 8236 b13c c127 c43d db40 c03c bde2 03bd
00000010: 1e5d 4abd 3f1e 223c 8402 373d 728e c1bc
00000020: f682 33bd cd19 b93d de83 483d 975f 983a
00000030: eecf eabb 8bb3 c03d b271 193e 7ffb bc3c
00000040: f72c 153e 45b0 48bd 720f b13b bd35 8d3d
00000050: 4d51 0dbd bce6 5f3d 6c56 98bc d0da 553d
00000060: a06e fa3c 140a ac3c 1f3d b8bd 01a8 d6bb
00000070: c835 f5bc 806a 4ebd ede3 5fbd be99 253d
00000080: 3aaf cbbd acd9 efba 2574 c9bd 407c aeba
00000090: d269 983b 2624 6fbc 848c 143d a6ad e53b
000000a0: b0df 28bd d459 493d 63d9 b6bd 0c45 7bbc
000000b0: d55f 923a 0493 673a 9b55 543d 5bac f83c
000000c0: 38c0 2e3d ff74 3e3d ec60 56bc bc96 083c
000000d0: cbc5 f2bb 7c5f 8c3c 2fee 0bbd c27a 733d
000000e0: 2558 993c 2f55 b8bc fde7 90bc cad7 35bd
000000f0: 530b c7bd 2ac0 9b3d 30f6 a33c a542 aa3d
00000100: a09a 9d3b 2969 8dbe f4d4 42bc d339 b73c
00000110: b0f2 bbbc 1123 323c cbad a23d 8c5f edbc
00000120: b7cd 263d b6d9 5bbc 78c5 4abd 69ec a73a
00000130: e195 f73b f483 b33c a11d 7cbd f815 15bc
00000140: efd3 3f3d acae d2bc 11a5 a73c f3dd d03a
00000150: e464 003d 18b9 9fbd ba4e 373c 5bce 513b
00000160: 1381 f7bc ecc0 c3bc cbf7 e13b 5889 b5bd
00000170: 6050 203d 0b51 593d bbe8 17bd 402e 51bb
00000180: 2f1d 673c 1e99 5ebd e402 d93e cbfb a53d
00000190: 985c 05bd b489 a63d 1649 723d bd2c 8bbc
000001a0: 0fba e63b 7293 383c e516 953c de19 9bbd
000001b0: 6b8f dcbc 1053 eebb 87c3 103d b86e c1ba
000001c0: bb07 2cbd fd7d 023d b5e0 84bc 2bc5 e5bb
000001d0: 7e08 8b3b 1070 26bd bf84 90bc c3d0 2abc
000001e0: 39f6 233d 81fe 323c 2c8c ffbb b27f e33a
000001f0: fdf6 3f3c 418d 303d 0ff2 223d 824e eebc
00000200: b8a0 cabc 8b39 813d 80c6 33bc 7313 ca3e
00000210: b6fa 923b 4ba8 40bd a809 3a3a f46c 9d3c
00000220: 3a11 dcbc 664a 543c 09b3 943d 7e44 5f3d
00000230: 756f aabc 78c7 603d deef 2bbd c57d 2bbd
00000240: 73cb 3abd f2fb eb3c 20b0 27bc 493c d6bc
00000250: d2a3 033c 281f 9fbc 94ab 923c dec1 973d
00000260: c5e9 9abc 9e6f b53c 12ab 8f3c 40d7 9b3d
00000270: 772c 213b 480d a9bc 954b b63b e503 283c
00000280: 3672 6cbd 58d9 923c c9ab 91bc 94a1 883c
00000290: 4c0f 943e af11 97bd 737d 993d 22fc a9ba
000002a0: 22ab 33bb 4dd0 3b3b 2a71 96bd 5adc a63c
000002b0: 2173 a2bc 593c 56bd 5b56 14bd 66ef 193c
000002c0: 7582 18bc 51c5 8abc 916c e93d 0e20 f7bd
000002d0: 883d 13bd 77f6 86bc ac6e 61bc 36fb 913c
000002e0: 6975 5bbb c9b5 ccbb b2af 2c3c 7d83 b2bb
000002f0: ad4b 603b ce10 34bd f4a0 79bb 0cc6 8cbd
00000300: cc8a 9d3d b944 af3c a41a 443d f450 95bd
00000310: c880 193c ec93 cd3d 8f89 823c 008f c2bd
00000320: db5b c8bd 065f 5ebd 2270 98bd affd 5b3c
00000330: 4af7 0a3d e191 5f3d 698e 963d 9f33 2bbd
00000340: 2082 353c f027 90bd 35e3 4dbd e035 db3c
00000350: 2191 283d 4bbd 91bc 2d2a da3c 4c22 a9bd
00000360: d129 11bd 761c e63d c52e e1bc 1d93 ffbc
00000370: bc5a b0bc d941 aabc c7f3 9fbc c666 003d
00000380: aa31 81bd 27bc bb3c 8a06 d13c 6481 43bd
00000390: dab9 48bd 809d be3a 83e0 2e3d b856 babd
000003a0: 0943 f13c f20e c23c 1eb2 8dbd 552c 04bd
000003b0: 6414 c9bc dbf2 823c 441b 723d f803 253d
000003c0: bbb1 da3d 4852 33bd ec68 66bd 5620 4cbd
000003d0: d4f2 603d 9da5 3c3d 9a58 38bd 714b a3bc
000003e0: 00cd 4dbd a81f bf3d 231c bc3c be98 26bc
000003f0: 2256 3b3c 9f4f e23d 041c aa3d 3e7e eabb

fc1.bias f4 [256]
0.041652706 0.20134328 -0.05794703 0.15822867 0.015941737 -0.21843067 -0.15297543 -0.13984081
-0.0009379629 0.06516918 -0.021132682 -0.05660017 0.086408444 -0.056413636 0.021603167 -0.074027024
-0.009805826 -0.12946747 0.12956159 -0.15195784 -0.033668593 0.026028143 0.053064875 0.048642
-0.03658996 -0.07222464 0.08689479 -0.070285104 0.08616276 0.04870484 0.051906575 -0.12115046
-0.13664 -0.020241834 0.064384066 -0.0097060725 0.086700305 0.058417123 -0.0337376 0.12758876
-0.0731578 -0.048815038 0.09299705 -0.08378047 -0.0891865 -0.19342932 0.115658596 0.062688924
0.12447894 -0.061809752 -0.12899743 0.015274589 -0.13737988 -0.10030951 -0.09645333 0.15714133
-0.022866514 0.013217353 0.02652831 0.0032330584 -0.09238784 0.2269631 -0.18505065 -0.00010171388
-0.15241978 -0.121013716 0.120584 0.11250409 0.026890883 -0.0017132785 0.037317775 0.12175954
0.020614974 -0.14637306 0.011910294 0.07480083 0.04941677 -0.050916784 0.15063736 -0.14160638
0.005990953 0.1486362 -0.02744317 0.13748336 0.15115726 -0.1489838 0.16170657 0.10672308
0.13398091 0.11975161 0.12267518 -0.006864703 0.08162763 -0.13386156 -0.21067017 -0.0014949425
0.095455885 -0.05262403 0.14608338 -0.09382153 0.026193552 -0.007833033 0.011819904 -0.1208415
-0.11491156 0.06672622 -0.055108838 0.1566014 -0.0011881012 -0.06362609 0.07639503 0.1985035
-0.09219132 0.047417317 0.036722112 -0.18740466 0.05385137 -0.21194917 -0.023326121 -0.15049514
0.15520407 0.12609626 0.14890344 -0.0387274 -0.05447772 0.10813969 0.013929896 0.08036179
-0.025290094 0.13491015 -0.08906572 -0.23836614 0.03400388 0.089618936 -0.029486008 -0.052588914
-0.18765388 0.07790691 -0.23070781 -0.09966447 0.10559857 -0.10602738 -0.10757176 -0.18362543
0.058951806 -0.08678012 0.007734483 -0.082669586 0.053724375 0.14632024 0.039734595 -0.015721858
-0.08653706 0.13442557 0.1702564 0.068524025 0.10981053 -0.0446955 0.029044429 -0.15539937
0.007055238 -0.13564731 -0.102146424 -0.17064847 0.00072047726 0.051717043 0.14816721 -0.02223688
-0.03470619 0.14572327 -0.050167806 0.13110915 0.12873285 0.09825545 0.09271235 0.0563903
0.13800018 -0.086438425 0.16843021 -0.09709912 -0.06665009 0.053638484 -0.13704284 -0.13159715
0.06049088 0.040459067 0.00073470816 -0.010206232 0.009936223 0.14255121 -0.08438447 0.07755832
-0.04439595 0.13568571 0.1650301 0.01494451 -0.040676907 -0.09899234 -0.036010936 -0.117375106
-0.054832406 0.06712792 0.021853877 -0.097551286 0.047335647 -0.014130929 -0.026968129 0.05934544
-0.14325309 -0.030145116 0.17460598 0.15122992 0.052341368 0.012835785 -0.038836047 0.12700553
-0.014437493 0.05902709 0.06737501 0.08411163 0.122764714 -0.12921862 -0.23489669 -0.16131547
0.17853162 -0.12705338 -0.18638165 0.040531144 -0.049170736 0.020960445 -0.034367383 0.0884781
-0.18431114 -0.1971285 0.0790147 -0.122933045 0.0057882327 0.032918226 -0.019094532 -0.14317262
0.03057882 -0.09896798 0.14963536 -0.053783424 0.10985948 0.06565458 0.11304604 0.057079546
0.0964054 -0.12678942 0.08466168 -0.08069166 0.029950662 -0.049233314 0.023581091 0.094864964
00000000: 079c 2a3d ef2c 4e3e dd59 6dbd b206 223e
00000010: 3f98 823c 4aac 5fbe 97a5 1cbe 6e32 0fbe
00000020: a0e1 75ba 6b77 853d 721e adbc 94d5 67bd
00000030: e9f6 b03d fc11 67bd 20f9 b03c 7b9b 97bd
00000040: 9da8 20bc 1f93 04be cbab 043e d69a 1bbe
00000050: 14e8 09bd f938 d53c 8e5a 593d d53c 473d
00000060: 5bdf 15bd 83ea 93bd e5f5 b13d a3f1 8fbd
00000070: 1a76 b03d ba7e 473d fd9b 543d bb1d f8bd
00000080: 5beb 0bbe 34d2 a5bc cbdb 833d 3806 1fbc
00000090: ee8f b13d cb46 6f3d 7030 0abd a1a6 023e
000000a0: c2d3 95bd 47f2 47bd 3d75 be3d 1895 abbd
000000b0: 69a7 b6bd 5612 46be 6ade ec3d 0d63 803d
000000c0: d1ee fe3d 392c 7dbd e717 04be 4542 7a3c
000000d0: 50ad 0cbe 136f cdbd 5389 c5bd a8e9 203e
000000e0: 8e52 bbbc 998d 583c e651 d93c b8e1 533b
000000f0: d635 bdbd 0469 683e eb7d 3dbe 394f d5b8
00000100: ee13 1cbe 0ad6 f7bd bff4 f63d 8b68 e63d
00000110: 454a dc3c 1690 e0ba 86da 183d 115d f93d
00000120: bce0 a83c d2e2 15be 6523 433c 2d31 993d
00000130: 3d69 4a3d 1e8e 50bd ae40 1a3e 4301 11be
00000140: c24f c43b 1734 183e 80d0 e0bc 70c8 0c3e
00000150: f8c8 1a3e 368f 18be 6896 253e a191 da3d
00000160: 4b32 093e 5540 f53d 203d fb3d 4df1 e0bb
00000170: 632c a73d 0113 09be ecb9 57be f2f1 c3ba
00000180: 607e c33d 4b8c 57bd e296 153e 8125 c0bd
00000190: dc93 d63c 1f56 00bc 45a8 413c c07b f7bd
000001a0: c156 ebbd c2a7 883d ceb9 61bd 1e5c 203e
000001b0: 10ba 9bba 654e 82bd ff74 9c3d 8044 4b3e
000001c0: cece bcbd a938 423d ed69 163d 02e7 3fbe
000001d0: 4193 5c3d 3409 59be 6c16 bfbc 661b 1abe
000001e0: d1ed 1e3e 611f 013e 257a 183e 9fa0 1ebd
000001f0: 0824 5fbd 5778 dd3d 383a 643c b994 a43d
00000200: 2c2d cfbc e325 0a3e 1768 b6bd 4116 74be
00000210: a747 0b3d 228a b73d a48c f1bc 7967 57bd
00000220: 5728 40be a88d 9f3d ab3e 6cbe e31c ccbd
00000230: 1044 d83d e224 d9bd 954e dcbd 4e08 3cbe
00000240: 7377 713d c7b9 b1bd 8c71 fd3b ac4e a9bd
00000250: 170e 5c3d f9d4 153e bec0 223d 20cb 80bc
00000260: 583a b1bd dba6 093e b257 2e3e 5356 8c3d
00000270: 58e4 e03d a112 37bd 95ee ed3c 0321 1fbe
00000280: a02f e73b 21e7 0abe 2532 d1bd 79be 2ebe
00000290: 69de 3c3a 40d5 533d 25b9 173e 1e2a b6bc
000002a0: 1428 0ebd 7b38 153e c27c 4dbd 7a41 063e
000002b0: 8bd2 033e 273a c93d f9df bd3d 84f9 663d
000002c0: eb4f 0d3e a106 b1bd f878 2c3e e7db c6bd
000002d0: d87f 88bd 07b4 5b3d f554 0cbe 67c1 06be
000002e0: 49c5 773d 68b8 253d 6e99 403a 0a38 27bc
000002f0: 8acb 223c f2f8 113e c4d1 acbd e5d6 9e3d
00000300: 87d8 35bd 32f1 0a3e a7fd 283e d1d9 743c
00000310: d49c 26bd 7fbc cabd 3480 13bd 5c62 f0bd
00000320: f297 60bd 5d7a 893d e706 b33c f8c8 c7bd
00000330: 06e3 413d 6985 67bc 44ec dcbc 3414 733d
00000340: f0b0 12be e4f2 f6bc e9cb 323e 04dc 1a3e
00000350: e763 563d 2f4d 523c 8c12 1fbd bd0d 023e
00000360: 3c8b 6cbc 64c6 713d e9fb 893d b842 ac3d
00000370: 116c fb3d e351 04be c288 70be e22f 25be
00000380: fed0 363e 481a 02be d5da 3ebe fc03 263d
00000390: 4167 49bd 3db5 ab3c d0c4 0cbd 0234 b53d
000003a0: 0fbc 3cbe 0edc 49be 76d2 a13d 52c4 fbbd
000003b0: 37ab bd3b 43d5 063d 236c 9cbc d89b 12be
000003c0: 6f80 fa3c b9af cabd 033a 193e 024c 5cbd
000003d0: 02fe e03d e975 863d af84 e73d 3ecc 693d
000003e0: 3270 c53d 16d5 01be 1a63 ad3d ab41 a5bd
000003f0: 175b f53c dfa8 49bd 222d c13c 9048 c23d

fc2.weight f4 [128, 260]
-0.0070102266 0.03633767 0.08918637 -0.034508668 0.08465386 0.08315878 -0.0836244 0.021275833
-0.04970406 -0.09137531 0.111356154 0.026593572 -0.0063850326 -0.011790066 -0.033160806 0.044132028
-0.00469613 -0.093328774 0.008728873 0.040647738 -0.0030111228 -0.16851003 -0.038714174 -0.105257556
0.05654022 -0.05473486 0.06634198 -0.15102598 0.065735206 0.009271238 0.0805244 0.072963536
-0.0044183475 -0.019059453 0.03211606 -0.05876248 -0.00032468463 0.015914932 0.11233515 -0.0525809
-0.10295393 0.061133347 -0.035724316 0.014580316 -0.050872397 0.05531852 0.029445061 -0.107375115
-0.089159496 0.050855335 -0.0029524448 0.03130448 0.08357931 0.09251742 0.09339347 -0.054185238
-0.096057765 0.09814941 -0.094926514 -0.099323295 0.0070456266 0.04774472 0.038187224 0.0144605795
-0.043077882 -0.05590624 -0.048528306 0.044631727 -0.045298323 0.016158452 -0.00020469117 -0.021770937
-0.00095554703 0.08316193 -0.01112217 0.03464396 -0.011783311 0.12467498 0.015898956 -0.036600094
-0.0035416314 -0.039964862 -0.07001604 -0.0064289086 0.007274358 -0.01594772 0.03364208 0.011230965
-0.07499457 -0.044479504 0.04323657 -0.026732432 -0.029483775 -0.09754363 0.043757804 0.08983517
0.118054315 -0.061074015 0.029414127 -0.007669326 0.031004574 -0.09557007 0.045189716 -0.01488558
-0.09648192 0.117600866 0.11045414 0.06983097 0.019602643 0.0061035217 0.0056914156 0.054536946
0.033555582 -0.074976526 0.029111428 -0.055071805 -0.054654725 -0.09950066 -0.034373317 -0.037195146
-0.0094758505 -0.049984496 -0.1290845 -0.11078513 -0.0021712256 0.008558887 0.052108143 0.010503925
0.1797327 0.1062479 -0.13578728 0.11632056 0.070224665 -0.086992234 -0.072916694 0.040758774
0.058632486 0.07109879 -0.038062785 0.21702987 -0.033937275 -0.15273665 0.02175301 0.24921036
0.031563964 0.040242556 -0.12743723 -0.042588286 -0.018977067 -0.13563089 -0.05582421 0.07175663
-0.12504704 0.093470074 0.069578454 -0.033072896 -0.06329546 0.05841187 0.013960146 0.0511818
0.021814274 0.06819379 0.057138734 0.06831397 0.054052852 -0.06415062 0.07346719 0.105511695
0.11038576 -0.028461868 0.20723696 -0.116224706 0.027690636 -0.0062061776 0.017617524 -0.10355845
-0.100836515 -0.13818778 -0.020807246 -0.0053162994 -0.14183849 0.08538204 -0.049217004 0.048737198
-0.06421192 -0.039158605 -0.05573569 -0.13389654 0.03706013 0.027632585 -0.09678271 -0.03512834
-0.03538486 0.084280424 -0.019253425 0.013020119 0.038356837 -0.016569328 0.06845323 0.038547795
-0.032768916 0.015715277 -0.000107002255 0.0525886 -0.0013308587 -0.061442006 0.0054039746 0.010036283
-0.0089688515 -0.06282955 0.021278517 0.059136406 0.06123513 -0.039468426 0.10498482 -0.091335066
-0.020597579 -0.026563548 -0.04894951 -0.037406944 -0.041187234 0.09855378 -0.0911629 -0.09765886
0.03590579 -0.04978344 -0.053406846 0.03734069 -0.065576136 -0.0020782882 0.09163177 0.010797107
-0.035137083 -0.025835102 -0.0028025745 0.008635861 0.049176596 -0.045711543 -0.24425395 0.08979614
-0.06522765 0.092423394 0.02001696 -0.06726215 0.10661113 0.07539486 -0.095621906 -0.039522145
-0.042477444 0.0726042 -0.0058483076 0.058359247 -0.0075962166 0.13211694 -0.096120685 -0.060465384
00000000: 0bb6 e5bb cfd6 143d 58a7 b63d f658 0dbd
00000010: 015f ad3d 274f aa3d 4543 abbd a84a ae3c
00000020: 7c96 4bbd fb22 bbbd b20e e43d c3da d93c
00000030: 8939 d1bb 1f2b 41bc a0d3 07bd c9c3 343d
00000040: fee1 99bb 2823 bfbd 8c03 0f3c 3e7e 263d
00000050: 4256 45bb e58d 2cbe c192 1ebd 4691 d7bd
00000060: b896 673d a931 60bd 4ede 873d 8ea6 1abe
00000070: 2ea0 863d 64e6 173c fae9 a43d e86d 953d
00000080: c9c7 90bb 9222 9cbc 218c 033d edb0 70bd
00000090: 6f3a aab9 0860 823c f90f e63d 125f 57bd
000000a0: 83d9 d2bd f666 7a3d a953 12bd 47e2 6e3c
000000b0: 935f 50bd ac95 623d c536 f13c 7ce7 dbbd
000000c0: 4199 b6bd af4d 503d ce7d 41bb 2039 003d
000000d0: a12b ab3d c679 bd3d 1345 bf3d 57f1 5dbd
000000e0: efb9 c4bd 8f02 c93d d568 c2bd 036a cbbd
000000f0: 00df e63b f88f 433d 356a 1c3d 11ec 6c3c
00000100: 6f72 30bd f1fd 64bd 9ec5 46bd c2cf 363d
00000110: bc8a 39bd bb5e 843c 5ea2 56b9 f758 b2bc
00000120: ad7d 7aba cd50 aa3d c339 36bc d3e6 0d3d
00000130: ca0e 41bc 9955 ff3d 873e 823c fbe9 15bd
00000140: b71a 68bb 32b2 23bd 9264 8fbd 98a9 d2bb
00000150: bd5d ee3b cba4 82bc 47cc 093d 1502 383c
00000160: c196 99bd 2430 36bd d418 313d f9fd dabc
00000170: f587 f1bc f4c4 c7bd 623b 333d 80fb b73d
00000180: 76c6 f13d bf28 7abd e5f5 f03c f84e fbbb
00000190: 4efd fd3c 3eba c3bd da18 393d a6e2 73bc
000001a0: 5098 c5bd b9d8 f03d c835 e23d 8a03 8f3d
000001b0: b995 a03c 0d00 c83b 0e7f ba3b 2262 5f3d
000001c0: 9471 093d 4b8d 99bd 177b ee3c f992 61bd
000001d0: a2dd 5fbd 01c7 cbbd 09cb 0cbd f059 18bd
000001e0: 9940 1bbc 8bbc 4cbd ba2e 04be 50e3 e2bd
000001f0: 1f4b 0ebb 933a 0c3c 596f 553d a818 2c3c
00000200: d90b 383e 8098 d93d d20b 0bbe 7939 ee3d
00000210: f3d1 8f3d fc28 b2bd 5955 95bd acf2 263d
00000220: 9e28 703d 3e9c 913d b9e7 1bbd 143d 5e3e
00000230: d001 0bbd ff66 1cbe 5e33 b23c 0031 7f3e
00000240: 3749 013d 61d5 243d e87e 02be 0e71 2ebd
00000250: cb75 9bbc d3e2 0abe eda7 64bd 24f5 923d
00000260: 550c 00be 3d6d bf3d 267f 8e3d 7277 07bd
00000270: 0da1 81bd 4941 6f3d 19b9 643c 02a4 513d
00000280: d9b3 b23c 30a9 8b3d 4e0a 6a3d 32e8 8b3d
00000290: 8666 5d3d 6661 83bd f775 963d 8416 d83d
000002a0: ee11 e23d dd28 e9bc ed35 543e 3807 eebd
000002b0: 79d7 e23c 315d cbbb a052 903c 7416 d4bd
000002c0: 6083 cebd 1981 0dbe f573 aabc 5a34 aebb
000002d0: 1c3e 11be c7dc ae3d c597 49bd a8a0 473d
000002e0: 8a81 83bd c664 20bd 1b4b 64bd 2d1c 09be
000002f0: 5dcc 173d bb5d e23c 0336 c6bd bce2 0fbd
00000300: b7ef 10bd 379b ac3d 5cb9 9dbc 5652 553c
00000310: 0f1c 1d3d 66bc 87bc 3531 8c3d 4be4 1d3d
00000320: b338 06bd 53bd 803c 6666 e0b8 2567 573d
00000330: 3570 aeba 9daa 7bbd d313 b13b 396f 243c
00000340: 17f2 12bc c7ac 80bd 4950 ae3c 0439 723d
00000350: b0d1 7a3d a5a9 21bd 4802 d73d e10d bbbd
00000360: 41bc a8bc cc9b d9bc 487f 48bd 0638 19bd
00000370: f2b3 28bd 90d6 c93d 9db3 babd 5e01 c8bd
00000380: f311 133d b8e9 4bbd 23c1 5abd 8df2 183d
00000390: c84c 86bd e433 08bb 70a9 bb3d 59e6 303c
000003a0: e7eb 0fbd 23a4 d3bc 66ab 37bb 6d7d 0d3c
000003b0: 666d 493d 073c 3bbd b51d 7abe 0ae7 b73d
000003c0: 1396 85bd 7a48 bd3d 9cfa a33c bdc0 89bd
000003d0: f056 da3d 9f68 9a3d 6bd5 c3bd f9e1 21bd
000003e0: d4fc 2dbd 83b1 943d 29a3 bfbb 1b0a 6f3d
000003f0: afe9 f8bb aa49 073e ecda c4bd 8daa 77bd

fc2.bias f4 [128]
-0.01755082 0.09620265 0.058101337 -0.052306045 0.034950554 0.028632522 -0.00095616176 0.034055598
0.05074763 0.013601257 0.04822595 -0.0020487176 0.09521329 -0.09521074 -0.040952448 -0.049133033
0.086125135 -0.057557717 0.005382424 0.06358059 0.12807885 0.1043779 -0.050993033 -0.050060607
0.109679416 0.017205099 0.12674306 -0.036954757 0.027085597 0.020533608 0.10649281 0.017313499
0.024007259 -0.09011366 -0.039943706 -0.006827704 0.07143853 0.019189013 0.121555015 -0.0009842613
-0.060266443 -0.02217345 0.010987242 0.02684937 -0.026927384 0.12439284 0.0453382 -0.0055516865
0.06674217 -0.011053826 -0.0076327375 -0.076360345 0.048493054 -0.041238222 -0.021468654 -0.081053644
0.070824936 -0.007204661 0.08608401 -0.03106831 -0.087889805 0.044764668 0.11886488 0.099930614
-0.022013444 0.050593637 0.02482965 0.09804492 -0.017584432 0.11055403 -0.0046957354 -0.028160185
0.07984895 0.023442827 -0.062424526 0.0048799575 0.11492624 -0.07873151 0.00020693727 -0.04038745
0.06419188 0.054685462 -0.053331714 0.066560686 -0.058805227 0.15098943 -0.0145777045 0.025580432
0.097285315 0.11070384 0.10567157 -0.010742482 -0.032980915 0.02392401 -0.0007192596 0.023150498
-0.10503479 0.05332743 0.117429614 -0.048089314 -0.06006728 0.04210653 -0.039632387 0.10052721
0.00034021647 0.05199957 0.025063213 -0.06095372 0.06896788 0.05937087 -0.009958702 0.010676769
0.014785137 -0.058934238 0.12942512 -0.025876 0.0028644989 0.033059206 -0.073117636 -0.059968665
-0.083233505 -0.0096264295 0.0609387 0.0057943114 -0.035386946 -0.0920962 -0.08118622 0.04851507
00000000: bdc6 8fbc e505 c53d abfb 6d3d dd3e 56bd
00000010: 5028 0f3d c08e ea3c eea6 7aba e27d 0b3d
00000020: bfdc 4f3d ced7 5e3c 9388 453d c743 06bb
00000030: 2fff c23d d9fd c2bd c1bd 27bd b83f 49bd
00000040: 6062 b03d a4c1 6bbd 0c5f b03b 8a36 823d
00000050: 1a27 033e 15c4 d53d 12de 50bd 5a0c 4dbd
00000060: 9a9f e03d b5f1 8c3c efc8 013e df5d 17bd
00000070: 9de2 dd3c 1936 a83c e718 da3d 0ad5 8d3c
00000080: dfaa c43c 838d b8bd 039c 23bd efba dfbb
00000090: 5d4e 923d 4732 9d3c d6f1 f83d 5402 81ba
000000a0: f2d9 76bd 18a5 b5bc d503 343c 36f3 db3c
000000b0: d196 dcbc acc1 fe3d 8cb4 393d ecea b5bb
000000c0: 1eb0 883d 1b1b 35bc 0b1c fabb d062 9cbd
000000d0: a7a0 463d 69e9 28bd 08df afbc 74ff a5bd
000000e0: aa0c 913d 1415 ecbb d04c b03d f882 febc
000000f0: 92ff b3bd 285b 373d 6e6f f33d 6ca8 cc3d
00000100: 8a55 b4bc 463b 4f3d 8d67 cb3c c6cb c83d
00000110: 3a0d 90bc 276a e23d afde 99bb 30b0 e6bc
00000120: d987 a33d 2c0b c03c dcb0 7fbd 0de8 9f3b
00000130: 735e eb3d fc3d a1bd 4dfd 5839 506d 25bd
00000140: 0877 833d ddfd 5f3d 5b72 5abd f850 883d
00000150: c0dd 70bd f99c 1a3e 53d7 6ebc 0e8e d13c
00000160: 863d c73d b2b8 e23d 566a d83d 3c01 30bc
00000170: ff16 07bd 49fc c33c b28c 3cba 1da6 bd3c
00000180: 7b1c d7bd dd6d 5a3d f07e f03d 4df9 44bd
00000190: 1c09 76bd e677 2c3d 9255 22bd 36e1 cd3d
000001a0: 155f b239 80fd 543d 5e51 cd3c 9caa 79bd
000001b0: 083f 8d3d df2e 733d d329 23bc 9ded 2e3c
000001c0: 5c3d 723c 0765 71bd 0588 043e e8f9 d3bc
000001d0: 51ba 3b3b 1769 073d b3be 95bd b4a1 75bd
000001e0: 5476 aabd 2cb8 1dbc dc9a 793d 35de bd3b
000001f0: e7f1 10bd ef9c bcbd f644 a6bd bdb7 463d

fc3.weight f4 [1, 128]
0.05523105 0.08451451 0.21857345 -0.29834944 0.0790793 0.14047673 0.04338339 0.1109311
0.03803959 -0.05813786 0.08360369 -0.1630138 0.05403198 -0.32760748 -0.24023485 -0.11552844
0.07645428 -0.05896585 0.054945398 0.13171148 0.052359372 0.06968237 -0.1662119 -0.07635965
0.092561476 -0.10754166 0.06908939 -0.07182182 -0.12829985 0.0744023 0.051306054 -0.11474747
0.064603075 -0.0943153 -0.10171681 0.103396006 0.06762839 0.06985371 0.06664642 -0.10618665
-0.28673723 -0.0836047 0.11997604 0.062606536 -0.15759729 0.2676734 0.07924619 -0.07051331
0.0823217 -0.091052465 0.128053 -0.07248942 0.06591259 -0.26197153 -0.107686915 -0.2692547
0.052425463 -0.075259656 0.11110966 -0.1680348 -0.11797395 0.046327196 0.08206872 0.056481827
-0.083515696 0.07041055 -0.12638515 0.055096615 -0.05316515 0.07803839 -0.10045038 -0.16639571
0.17917472 0.04210299 -0.06834919 -0.08781347 0.03658531 -0.12053703 0.07097515 0.09939613
0.05434629 0.052917045 -0.13703363 0.04364125 -0.14962493 0.05570123 -0.12582868 -0.13886647
0.085275695 0.050720442 0.10887029 -0.15804653 -0.23843332 -0.15825996 0.06290364 0.032447442
-0.14133045 0.09488398 0.10764949 -0.085785724 0.13550009 0.15732685 -0.14430538 0.049760435
0.06217918 0.19647306 0.143865 -0.07490583 0.05703857 0.11349276 0.06568395 -0.12522781
0.18647358 -0.11885355 0.07160677 -0.07233753 -0.20476258 0.117376044 -0.13309236 -0.26724228
-0.1826612 -0.14049172 0.13829528 0.08413196 -0.19647391 -0.17485756 -0.17618313 -0.043757863
00000000: f439 623d f215 ad3d b8d1 5f3e 42c1 98be
00000010: 54f4 a13d 22d9 0f3e c8b2 313d d82f e33d
00000020: 67cf 1b3d f721 6ebd 6938 ab3d 17ed 26be
00000030: a350 5d3d 2bbc a7be 2000 76be 2d9a ecbd
00000040: 1094 9c3d 2d86 71bd 6d0e 613d 60df 063e
00000050: c876 563d a1b5 8e3d 7433 2abe 7362 9cbd
00000060: df90 bd3d cd3e dcbd bd7e 8d3d 5217 93bd
00000070: 0961 03be 3c60 983d 4c26 523d b900 ebbd
00000080: 9e4e 843d 6128 c1bd e750 d0bd 49c1 d33d
00000090: c180 8a3d 760f 8f3d eb7d 883d 6378 d9bd
000000a0: 39cf 92be f138 abbd 00b6 f53d db37 803d
000000b0: 2f61 21be 7d0c 893e d44b a23d 4869 90bd
000000c0: 4898 a83d b779 babd 5320 033e 5575 94bd
000000d0: 2efd 863d 2221 86be f58a dcbd c1db 89be
000000e0: 15bc 563d bc21 9abd 768d e33d 5111 2cbe
000000f0: 549c f1bd 96c1 3d3d a513 a83d 7d59 673d
00000100: 470a abbd 6833 903d 1c6b 01be fdac 613d
00000110: b3c3 59bd 97d2 9f3d eeb8 cdbd a363 2abe
00000120: 9479 373e 2f74 2c3d a9fa 8bbd 8cd7 b3bd
00000130: 7ada 153d 1edc f6bd 6b5b 913d 3390 cb3d
00000140: 379a 5e3d 8bbf 583d 8b52 0cbe 2bc1 323d
00000150: 4737 19be f926 643d 3cd9 00be 0333 0ebe
00000160: 06a5 ae3d 3dc0 4f3d 63f7 de3d f3d6 21be
00000170: dd27 74be e60e 22be a0d3 803d 9ce7 043d
00000180: eeb8 10be 8852 c23d 5677 dc3d 6db0 afbd
00000190: 89c0 0a3e 4a1a 213e cac4 13be 99d1 4b3d
000001a0: 99af 7e3d 3c30 493e 5951 133e 3a68 99bd
000001b0: 47a1 693d e46e e83d 4f85 863d b83b 00be
000001c0: eef2 3e3e 7d69 f3bd 92a6 923d b325 94bd
000001d0: 48ad 51be da62 f03d 5d49 08be fbd3 88be
000001e0: 8a0b 3bbe 10dd 0fbe 479d 0d3e 614d ac3d
000001f0: 7530 49be dc0d 33be 5a69 34be 723b 33bd
