checkpoint_actor.pth (torch_old, 169466 bytes, 6 tensors)

fc1.weight f4 [256, 33]
00000000: 36fb b5bd 84a0 0abe fc6a 9e3d 0a9f 9abb
00000010: f0cd 93bd 522c c13d 399c 903d e567 2cbd
00000020: 630f 9e3d d06b 043d 6b1a f8bc 2968 3e3c
00000030: 7c46 453d 227f 1ebe b48a 7e3d 01d0 3a3e
00000040: efc0 193c 8008 95bc 677e 6abb 5c70 503d
00000050: 2176 fcbc 9b07 db3c c77c 6ebd 61c4 0fbd
00000060: ea1a 9e3c 3c36 a43d abab 983d aa8d 98bc
00000070: 3ecf acbd 702a 013d ab0b 543d 7400 e93c
00000080: 355d 4ebd 0fae 4fbd 4e71 c43d c3d2 56be
00000090: f87c fe3b b19e 893c bc53 b63d a94a bb3b
000000a0: 9dfe 91bc da81 47bd 157c 11bd 3ee5 b8bd
000000b0: b59f 5e3d 91c8 673d ca94 2f3c f56c a73c
000000c0: 707b 2ebd 6083 2b3d e217 e6bc 2fc1 3f3e
000000d0: 5269 bc3d 0365 ee3d fac7 893d 9d9b 913b
000000e0: 2e90 7dbd 0e4f 1dbd 5ec2 8b3e d7c9 4d3d
000000f0: e8d8 d33d 0264 bf3d ca5b 71bd 9aff bbbd
00000100: 1a4e 543d fb13 94bd ed58 333d 1088 503d
00000110: 8d3d c2bd f51b 12bd 1b56 0c3e ade4 5cbe
00000120: 66ea 053c cb76 7b3d 43f4 66bd 45c9 a3bd
00000130: 1b39 8ebd 1a74 7ebc 99ff b3bd 0148 833d
00000140: 37ee dd3c 3a3c 543e 89e7 1dbd 04e4 a8bd
00000150: 6047 4cbc 11bd 49bc 2dad 253d 2be2 b7bc
00000160: 092e 9b3d 3556 1cbd a46a 02bd d56e dc3d
00000170: 94a5 aebd 6734 98bd 0a15 08be 2841 063d
00000180: 582e 453c 7ca1 12bd 5bf3 19be 0e7c dcbb
00000190: 939e 6a3b ef17 203d 65bb 06bd e633 6a3d
000001a0: 8368 18be 694b d13c b3f1 77bd cf72 75bc
000001b0: a327 bb3b c7ae a2bd 813f 86bd 32e0 a03d
000001c0: 8200 21be b581 81bd 0660 a3bd 3b88 e83c
000001d0: 6beb 033d 8044 653d 4f2d d3bc 6305 743d
000001e0: 31f9 0d3c f716 efbc 28a1 333d 9cb8 313d
000001f0: 45a1 a438 552c 663e b497 b03c 0d42 493e
00000200: 8c51 63bd 779c 033c 38cd 34bd 2bc0 953e
00000210: 1761 84bd 230e c1bd cf1b 193e a348 fc3c
00000220: ba24 093d 598b 063e 1d89 b93c a394 64bd
00000230: 1f34 8abd baa2 83bd 4228 e7bd 11bd abbd
00000240: b7ae e83d 451a 1a3d 0d9c 823d 62ed 873d
00000250: 1743 9ebc 9d27 033d 81c7 113e 218b 1c3d
00000260: 889b a33d e114 05be 62a6 6c3d 53d0 ca3d
00000270: e8ab 673d d473 ed3c 1ae6 663c 7f87 08be
00000280: 42cc 92bc b84f 373c 9373 143e 28a8 743d
00000290: 2ec6 803e 3961 7a3d f97e 063e a146 7b3c
000002a0: 8ce7 7ebd 50a6 f33d 2369 6cbc 7979 043e
000002b0: c4c0 663d a31a 373e 5162 623d f4c9 a13d
000002c0: 1e4f 883d c04f a63d d9b3 b4b9 784a b5bd
000002d0: 16e7 0d3e 00ca dbbd acdf 703c 19a4 02bd
000002e0: 3530 f83b b4af 2dbd d079 84bc 8d8f a6bd
000002f0: 64cb 923d 79a4 c03d 6e41 5c3d 6a16 0fbd
00000300: 7a77 ee3c 9ac8 8c3d e88c bf3c 5acf 1cbd
00000310: b44c 823c 059d 563e d2a7 ccbd 4f77 88bd
00000320: dde8 13bd 1e34 c53d bf82 99bd f14e c0bc
00000330: d721 cbbd 3e56 043d fc8a b43b 8693 a7bd
00000340: 2908 88bd e90a 983c 37af f5bd d3eb 13be
00000350: 2bd6 30bd fca9 dcbb ff96 3d3d 60b0 4fbd
00000360: 8760 5e3d d696 a93a dcf0 bc3d 0f64 9e3d
00000370: 4745 1bbd f667 8c3d 19b0 e5bd 4db2 d4bd
00000380: e474 303e d6ec 55bd 9d46 013d 90ba 223d
00000390: 21fd 92bb 3880 463c 145e ac3e d57b 14be
000003a0: 084f 51bd 1ebb 29bd 2ca0 b63c 79ec d6bd
000003b0: a1ef 833c 8bee 0ebd 657c ab3d 63fc b7bd
000003c0: eaf0 54be 33c4 ebbd 60f6 00bd 737d f1bd
000003d0: 96ce 2bbd 0136 1d39 9322 1fbd 3fe0 963d
000003e0: fcb7 8dbd a07b 323e 079c 2ebd 41d6 0abd
000003f0: 08c2 f0bd 15b5 3cbe 5498 4ebb 0c72 98bd
-0.08885805 -0.13537794 0.077352494 -0.004718666 -0.07217014 0.094322816 0.07061047 -0.04209127
0.077177785 0.03232938 -0.030286035 0.011621513 0.048162922 -0.15478185 0.062143996 0.1824341
0.009384378 -0.01819253 -0.0035780908 0.050888404 -0.030818047 0.026737025 -0.058224466 -0.03509939
0.019299943 0.08018157 0.07454618 -0.018622238 -0.08437966 0.031534612 0.05176894 0.028442599
-0.050381858 -0.050703105 0.09591924 -0.20978837 0.0077663623 0.016799303 0.0890269 0.0057156873
-0.017821604 -0.04870782 -0.035518724 -0.090280995 0.054351527 0.05658776 0.010716626 0.020437697
-0.042598188 0.041873336 -0.02808756 0.18726037 0.09199776 0.1164036 0.067275956 0.0044435994
-0.06190508 -0.03840547 0.27296728 0.050241318 0.10344106 0.09345247 -0.058925427 -0.091796115
0.051832296 -0.072303735 0.043785978 0.05091101 -0.09484396 -0.035671193 0.13704722 -0.21571608
0.008173561 0.061392587 -0.05638529 -0.079973735 -0.06944486 -0.01553061 -0.08788986 0.06410218
0.027091129 0.207261 -0.038550887 -0.082466155 -0.012468189 -0.012313143 0.040448356 -0.022446712
0.0757714 -0.03816815 -0.03183998 0.10763327 -0.08527675 -0.0743187 -0.13289276 0.03277698
0.012034975 -0.035798535 -0.15034239 -0.0067286557 0.0035800084 0.039085325 -0.032893557 0.0571784
-0.14883618 0.025548654 -0.060533237 -0.014980986 0.005711512 -0.079434924 -0.06555081 0.07855262
-0.1572285 -0.06323568 -0.079772994 0.028385272 0.032206934 0.05597353 -0.02577844 0.05957545
0.008665369 -0.029185755 0.043854862 0.043388948 7.850168e-05 0.22477849 0.021556713 0.19654103
-0.05549769 0.00803291 -0.044141024 0.29248175 -0.06463831 -0.094265245 0.14952014 0.030796355
0.03348229 0.13139094 0.022648389 -0.055805814 -0.067482226 -0.06427522 -0.112869754 -0.08385671
0.11361449 0.03762271 0.063774206 0.06637074 -0.0193191 0.0320202 0.14236261 0.03821862
0.079886496 -0.12996246 0.057775863 0.09903016 0.056560427 0.028985895 0.014092946 -0.13332938
-0.017919663 0.01118844 0.14497213 0.05973068 0.251512 0.061127875 0.13134374 0.015336663
-0.06223254 0.11896956 -0.014429363 0.12936963 0.05633618 0.17881255 0.055269543 0.078998476
0.066557154 0.0812068 -0.00034466272 -0.088520944 0.13857684 -0.10731888 0.014701765 -0.031894777
0.007574106 -0.04240389 -0.016171366 -0.08132849 0.071677 0.09406371 0.053773336 -0.034933485
0.029109705 0.06874199 0.023382619 -0.038283683 0.015905716 0.20958336 -0.09992947 -0.06663381
-0.036110748 0.09629081 -0.07495641 -0.023475142 -0.09918564 0.03230881 0.0055097323 -0.08182435
-0.066421814 0.01855989 -0.1199631 -0.14445429 -0.043172996 -0.006734131 0.04628658 -0.050705314
0.054291274 0.0012938629 0.09225628 0.077339284 -0.037907865 0.068557665 -0.112152286 -0.10385571
0.1723209 -0.052227817 0.031561483 0.0397287 -0.0044857417 0.012115531 0.33665526 -0.14500363
-0.05110076 -0.041438214 0.022293173 -0.10494322 0.016105475 -0.03489546 0.08373336 -0.08983686
-0.20795026 -0.115120314 -0.03148496 -0.11791506 -0.041945063 0.00014992805 -0.038851332 0.0736699
-0.06919858 0.17429972 -0.042629268 -0.033895735 -0.117557585 -0.18428452 -0.00315239 -0.07443628

fc1.bias f4 [256]
00000000: 9134 0d3e dd98 a93d 24ad a93c 751e ef3d
00000010: aa76 b93d 976f 4cbe 80ea e2bd e6e3 1e3c
00000020: 1944 76bd d601 f03d 6fa2 c1bd b0d4 d7bd
00000030: 0372 b23d 1ecb 62bd adeb 093d b0eb 7fba
00000040: 61de 7cbd 1580 f0bd cdad 7f3e b29d 4bbd
00000050: b728 62bd 6059 b23c af17 313d 5c0b 953d
00000060: 0ef2 1f3d 250e 04be 39fa 443e 2dcf f7bd
00000070: 440c f43d 8600 aa3d 40fc 803d 21a9 0ebe
00000080: 79df 03be b41c ba3c 6847 f13c aa9d 943c
00000090: 79ff 423e 9846 003e 157a ccbd 7776 3c3e
000000a0: 7628 ccbd 2b05 aebd 8b11 d63d b530 3cbe
000000b0: 4805 d7bd 5a81 92be 9ba9 073e 38be d83d
000000c0: 5fa6 fb3d 4336 30bd 9d5e 5abd 341d 34bd
000000d0: 788f d2bd 8ab8 6ebd 81fe 31be 7f28 653e
000000e0: 80c7 5a3d ea59 6c3a f9b8 783b 0bb3 e03d
000000f0: ccf1 b7bd a972 763e 91b3 413d 2535 863d
00000100: f23a b8bd 8679 abbd 4a2f e4bc aeb6 3e3e
00000110: 60b1 103e 3767 633c 7e40 9e3d fcaf 013e
00000120: 1b69 413d 28c0 44be 72e3 063b dae6 893d
00000130: e5ce 4c3e 7672 113c f39c 2a3e ac7f 03be
00000140: 8e81 253e 392a 323e aaf5 d33b 72e6 3a3e
00000150: 0916 5c3e 42ca 40be 6e9e bb3d e5f5 903d
00000160: 8dbc 273e 4ca3 3c3e c975 a63d 351a 3e3d
00000170: a64c 9f3d 0162 e5bd d8da 21be 1aaa e43d
00000180: f16c 8c3d 91b4 0dbd eab9 173e 56c3 fdbd
00000190: aae5 5e3d cf32 82bd 30ce 813d 9046 5abd
000001a0: 394f cabd 775f ce3d 96e0 263c a357 373e
000001b0: 1f72 ba3d 84f6 263c a961 2a3e c8f3 883d
000001c0: e0bd 0abd 5f44 273e e674 6e3d a062 dcbd
000001d0: 3789 dc3c 9742 cdbd 0b38 173e ac32 31be
000001e0: 26a2 3c3e f196 0f3e 3dad 633e eb20 663d
000001f0: 8417 a13b dd3e f33d 4e70 f93d ec53 193e
00000200: 5ed6 cabd 54e7 5b3e b748 70bd 8318 47be
00000210: e706 f93d fc52 333e 2c78 3e3e 249e 933c
00000220: ac0e 3abe 7872 203e 4216 04be 2f1e e2bd
00000230: dedf d53d 8de1 95bd eb3f d9bd 43ed a8bd
00000240: b0bb 353e 6e1e 80bd 7267 e83d d0b6 373b
00000250: 4bc2 c63d eb3d 543e 83d2 fcbc db4c 14bc
00000260: ab81 2d3d 2e21 333e e65f 0c3e 84ae 583d
00000270: 1eec 353d 78e9 81bd 263f b1bc cbc2 dfbd
00000280: 52aa e13d 936f c4bb 9359 01bd 9f22 3dbe
00000290: 9298 7ebd 8b7b 373d f51b dd3c cb08 2cbd
000002a0: 05e4 543d 5723 0a3e fa2f eabd fb7a c93d
000002b0: b29a 673e 1ac1 8a3d e9f9 8a3d 8cfa 533e
000002c0: bb8c 1d3e ac8b 71bb 1e44 3d3e ee74 97bd
000002d0: 81cb 15bd 12d6 373d c775 17be f195 60bd
000002e0: 8c29 193d 2758 fe3d a8d3 91bd 18d6 2dbd
000002f0: 27a8 b63c f816 323e 69e7 e4bd d4bf c03d
00000300: 305e 533d 5d86 f73d 762f 413e 3169 733d
00000310: 46f7 bdbc e28b 823c 945d 74bd 990b 2fbd
00000320: 7762 a8bc a697 f23d c73a e03d 1500 ad3d
00000330: e514 413e e8f5 f6bc 9ee1 9f3d 4070 e5bb
00000340: 4434 25be 9ddb 9abd 7f62 d83d 785e 253c
00000350: bb6d 9abc 2cec a23d b235 c13c c703 133e
00000360: 359d e03d b847 9c3d f199 e23c c77c ca3d
00000370: a9de 233e 6580 90bd 625f 76be ae90 1bbe
00000380: ca5f f13d 98ac 55be 9164 5bbe cfdf 9d3d
00000390: b61c a0bd 8a98 063e 5140 edbd 5dae 353e
000003a0: b113 04be 7728 35bd e38f 443e ac3e 8abd
000003b0: e4fb eb3d 79a9 763d d652 9f3d 4926 90bd
000003c0: 5132 f73c fe04 c3bd 7cf1 4b3e 24a5 2d3d
000003d0: 55b7 433e 1fdb 363e 1cff 4a3e 8752 e13d
000003e0: 4cbd 0d3e 536f 8ebc ca0c 753d 8299 9f3d
000003f0: 0a03 133e 61b1 a2bc 0994 db3d 3b0b 143e
0.13789584 0.082811095 0.020712443 0.11675731 0.090558365 -0.19964443 -0.110798836 0.00969789
-0.060123537 0.117191 -0.0945481 -0.10538614 0.08713152 -0.05536949 0.033672024 -0.0009762598
-0.061735515 -0.1174318 0.24968643 -0.049710937 -0.05521461 0.021771133 0.043235477 0.07277557
0.0390492 -0.1289602 0.19236077 -0.121000625 0.11916402 0.08300881 0.06298113 -0.13931705
-0.12878217 0.022718765 0.029452994 0.018141586 0.19042768 0.1252693 -0.09984223 0.18404566
-0.09968655 -0.084970795 0.10452565 -0.18377955 -0.10499054 -0.28614312 0.13248293 0.10583156
0.12287592 -0.043020498 -0.053312887 -0.043973163 -0.10281271 -0.05828146 -0.17382242 0.2237873
0.053412914 0.0009016084 0.003795205 0.1097165 -0.08981666 0.24067177 0.04729039 0.06553105
-0.08995618 -0.08372788 -0.02785458 0.18624374 0.14130163 0.013879589 0.07727145 0.12664789
0.047219377 -0.19213927 0.0020582345 0.067334846 0.20000799 0.008877387 0.16661434 -0.12841672
0.16162702 0.17398919 0.0064684944 0.1825197 0.2149278 -0.18827155 0.091610774 0.07078151
0.1638052 0.18421668 0.081279345 0.04641171 0.077782914 -0.112003334 -0.15806139 0.11165257
0.068567164 -0.03459603 0.14817014 -0.12390773 0.054418243 -0.06357347 0.06338155 -0.05328995
-0.09878392 0.10076802 0.010185381 0.17904525 0.09103798 0.01019061 0.16638817 0.066871226
-0.033872485 0.16334675 0.05821695 -0.10760999 0.026920898 -0.10022467 0.14767472 -0.17304486
0.1842123 0.14022423 0.22234054 0.056183737 0.0049161334 0.118772246 0.121796235 0.1497342
-0.099041685 0.21474963 -0.058663096 -0.19442944 0.1215952 0.17512125 0.1860053 0.018019743
-0.1816966 0.15668666 -0.12899116 -0.11040913 0.1044309 -0.07318411 -0.106078945 -0.08248379
0.17747378 -0.06255804 0.11347856 0.0028032549 0.09705027 0.20726745 -0.030862099 -0.009051527
0.04235999 0.17493126 0.13708457 0.052900806 0.044414632 -0.06343359 -0.021636557 -0.10925826
0.11018814 -0.005994746 -0.031579565 -0.18470238 -0.06215722 0.044795554 0.02699087 -0.042000573
0.05197527 0.13490044 -0.11434932 0.0983791 0.22617605 0.067751125 0.06785948 0.20701045
0.15385716 -0.0036856933 0.18483016 -0.073953494 -0.03657103 0.044881888 -0.14791022 -0.054830495
0.037393138 0.124191575 -0.07120448 -0.042440504 0.022296978 0.17391574 -0.111769505 0.09411588
0.051603496 0.12086175 0.18865761 0.05942649 -0.023189198 0.015935842 -0.059659556 -0.04273567
-0.020554764 0.11845331 0.10948711 0.08447281 0.18855627 -0.030146554 0.07806705 -0.0070019066
-0.16133219 -0.07561419 0.10565662 0.010093324 -0.018851152 0.079552025 0.023585174 0.1435691
0.10967485 0.07630867 0.027661296 0.09887081 0.16002907 -0.07055739 -0.24059823 -0.1519191
0.117858484 -0.2086662 -0.21425082 0.07708704 -0.07817976 0.13144127 -0.11584533 0.17742296
-0.12898137 -0.044228043 0.19195513 -0.06750235 0.11522654 0.060220215 0.077794716 -0.07038552
0.03017536 -0.095224366 0.19916338 0.04239382 0.19112904 0.17857026 0.19823879 0.11002069
0.13841742 -0.017387068 0.05982665 0.07792951 0.14356628 -0.019859971 0.10721595 0.14457409

fc2.weight f4 [128, 256]
00000000: 73fd a9bc 8f91 123e 9b24 bf3a e260 c73d
00000010: 8fe3 57bd 2f26 8d3d 16e8 413e 3edf 0abe
00000020: 55f9 07bd 28a9 0f3c f93d 123e 6f21 bd3d
00000030: 2443 0b3d 96bf 9ebd 500a 05bd 6aca 6bbd
00000040: 41fb 8c3e f1f8 a1bd e4eb 4cbe 63b5 c13c
00000050: c6a1 ea3b ea02 663d a754 813c 2c38 90bd
00000060: b610 21bd 0b1a bb3c 96c0 0bbe 8ec7 f23c
00000070: f6b1 04be f6e4 c63d d752 753c 60b3 843e
00000080: 40fb eabd ce1d 05bd e580 eb3d 97da 8c3c
00000090: 0f82 1c3e d00b 2abb 6cb8 91bd 252b 34bd
000000a0: 4430 6bbe 629a 093c 3af8 25bd e267 ce3d
000000b0: d543 3a3d cfc2 0ebd 33d8 8a3d 293e 42be
000000c0: 822c 7ebd dbd6 4cbd 4f2a e23d 8ffe e63e
000000d0: 0b25 2abd a1bf 933e 1c73 42be cb5a 023e
000000e0: f4f3 6c3d e475 13bd c764 47bd fb40 ef3c
000000f0: 45cb 3d3e f455 6f3d f760 c4bb dd37 bf3c
00000100: a747 3bbd 8656 2dbe ead4 1ebe 119a 1c3c
00000110: 7ea1 b33d 6804 9c3d 8fb1 46bd 4f91 bd3d
00000120: 6b13 103c a6cc 2bbe dc76 22bc 5622 47bd
00000130: 6f12 cbbd 6084 ba3d dac6 21be 05c0 083e
00000140: e19a 9c3d 5013 04be 20f1 6fbc 027e 4cbc
00000150: 0261 bb3c 5764 723e 0fa4 0cbd a85d 773d
00000160: c600 5b3d f789 00be 3233 da3d 52dd 193e
00000170: 1fc9 87bb 6b25 ddbb 7fdc bcbd 014b 43bd
00000180: d135 b73d 0d3d c43d ad3a ccbd 52d8 3fbe
00000190: 8107 ac3c f626 dc3d 1ef2 a03d 76c1 e0bc
000001a0: 91e4 81be b4b2 21bd e937 16bd 3762 40bc
000001b0: b7a4 b73d df06 043d e12c 4cbd be95 93b9
000001c0: b399 92bd ff07 d13d 83ee 353d fac1 bdbd
000001d0: a909 5c3d cd79 043e 993c bebd 3f1e 50be
000001e0: 8f4d 43bd fef4 89bc 0e68 13bd cc51 8d3e
000001f0: 2ab0 bc3b f62e 0ebd 556e 7b3d 6df1 803d
00000200: 16a8 0dbe 584b 223e 8193 13bc 060f d1bd
00000210: cb58 943d 139b 0fbe 2ab4 813d 21c3 633d
00000220: bb91 52bd d7bd 6dbd 92b0 073e 957a f6bd
00000230: 77bc 613b 7010 c6bd 1514 2e3d 602e c23c
00000240: 3231 3d3e c91e 793e 04b6 eabd ef5f b43b
00000250: 901d dd3d 8090 9e3d 4c67 ea3d 058f 073d
00000260: 0dd2 44bd 48fb 3abd a205 aabd 6b02 f23d
00000270: 2744 553e cf23 ed3d 54a5 13bc f845 253e
00000280: 3a6c a9bc 9ba1 eb3d cdfb 20bd 5bdd 403e
00000290: 6be1 24be 9a9b 75bd 0856 00be 5940 873e
000002a0: 2ca6 95bc 0605 e13c c482 3c3d 5cda 99bc
000002b0: 0895 1abd 97b0 8d3d 62bc 33bc eec3 9b3c
000002c0: 10fe 5fbe 82ae 6dbd 5d09 46bc f7ff d73d
000002d0: 771d a9bd a24e 01be 29b9 463e 8f57 a8bd
000002e0: bc88 e53c 3322 173c de7d 9b3d eeea ae3c
000002f0: ea8d edbd 3637 5c3d bce9 a73c 23d3 46ba
00000300: 9ceb 89bd d4db 8abd c07c f63c 747a 17be
00000310: b913 2abe 253f e5bc 0d63 863e 1268 18be
00000320: 86f8 cdbd acbd 3cbd 5cfc a83d 8f40 7a3d
00000330: aa45 d1bd 76ab 363e 8275 fc3b 7f7d 903d
00000340: 9187 1fbe 2864 2cbe 4013 073d f99b 653e
00000350: 0017 6abe 75ca 05be 687d 42be 5753 9f3d
00000360: f1bf b6bd 8af7 ebbc 9f88 d23d c926 cbbd
00000370: a839 45bc 2883 da3b 5a99 78be 826a 11bb
00000380: db37 6b3d 9525 d43d 1f2e 8fbd 6c83 88bd
00000390: 9166 813d f252 b2bd ffdd e93d 41b5 143e
000003a0: bd54 223d 1f84 0dbd 1874 1bbe 6092 68bc
000003b0: bd26 8ebc bbea 643d e91b aebd 6823 65bb
000003c0: 4afe 123e 654a 7ebd 1e51 65be e786 5d3d
000003d0: 91c1 823c 1ef3 593d b3a1 22bd 1ab8 76be
000003e0: feb1 5abd 86a1 21bd 5a53 873d a319 723d
000003f0: 632e 60bd 5b4a 1e3e e744 4e3d 6e3f 04bd
-0.020750737 0.14313339 0.0014583053 0.09735276 -0.05270725 0.068920486 0.1893619 -0.13561723
-0.033196766 0.008768357 0.14281453 0.092348926 0.033999577 -0.07751386 -0.032480538 -0.057566084
0.27535442 -0.0790881 -0.2001186 0.023646062 0.007160398 0.056155123 0.015787436 -0.07041964
-0.039322577 0.022839567 -0.13647684 0.02963617 -0.12958512 0.097116396 0.014973364 0.25918102
-0.114737034 -0.032499127 0.11499194 0.017194076 0.15283988 -0.0025946982 -0.07115254 -0.04398646
-0.2296763 0.008398624 -0.04051993 0.10078408 0.045474846 -0.034853753 0.06779518 -0.18969025
-0.062054165 -0.05000959 0.11043226 0.45116088 -0.041539233 0.2885714 -0.18989223 0.12729947
0.05784984 -0.0360011 -0.048680093 0.02920579 0.18534572 0.05843158 -0.0059930044 0.023342067
-0.04572263 -0.16927537 -0.15510908 0.009558217 0.087710366 0.07618028 -0.048509177 0.09256231
0.008793692 -0.16777286 -0.009916034 -0.04861673 -0.09915625 0.0910728 -0.15798512 0.133545
0.07646728 -0.12897992 -0.014644891 -0.0124812145 0.022873405 0.23671089 -0.034336146 0.060392052
0.053467534 -0.1255263 0.10654296 0.15025833 -0.0041438485 -0.0067488453 -0.09221744 -0.04767895
0.089458115 0.09581957 -0.09972129 -0.18734863 0.020999672 0.10749619 0.0785868 -0.027436
-0.25369695 -0.039477065 -0.036674414 -0.011742166 0.08966964 0.032233115 -0.049847487 -0.00028149592
-0.07158222 0.10206603 0.044416916 -0.09265514 0.05372015 0.12937088 -0.09288902 -0.20324038
-0.047681388 -0.016840454 -0.035987906 0.2760147 0.005758305 -0.034712754 0.061384518 0.06296048
-0.13833651 0.15849054 -0.009007336 -0.102079436 0.072434984 -0.14024 0.06333192 0.05560601
-0.05140851 -0.058042374 0.1325095 -0.120350994 0.003444461 -0.09671104 0.04249962 0.023703754
0.18475798 0.2432815 -0.11460498 0.0055046002 0.10796654 0.07742405 0.114454836 0.03309538
-0.048051883 -0.045649797 -0.083018556 0.118168674 0.2082678 0.115790956 -0.009011585 0.16139972
-0.02068149 0.11505433 -0.039302636 0.1883444 -0.16101615 -0.059962846 -0.12532818 0.2641628
-0.018267713 0.027468216 0.046023145 -0.01878088 -0.037739784 0.069184475 -0.010970207 0.019014325
-0.21874261 -0.05802775 -0.012087193 0.10546868 -0.08257573 -0.12627652 0.1940657 -0.082198255
0.028019302 0.009224462 0.07592367 0.021352258 -0.115993336 0.05376359 0.020497195 -0.00075845624
-0.06734392 -0.0678021 0.030088782 -0.14792806 -0.16609086 -0.027984211 0.26247445 -0.1488345
-0.10057168 -0.046079323 0.08251259 0.061096724 -0.102183655 0.17838845 0.0077044377 0.070551865
-0.15579058 -0.16835082 0.032977343 0.2242278 -0.22860336 -0.13065512 -0.18993151 0.07779568
-0.08923329 -0.02880456 0.10279965 -0.09919507 -0.012037672 0.006668467 -0.24277249 -0.0022188728
0.057426315 0.10358731 -0.06991219 -0.06665692 0.06318391 -0.08707227 0.114192955 0.14522268
0.039631594 -0.03454983 -0.15181005 -0.014195055 -0.017352456 0.05588792 -0.08501417 -0.003496373
0.14354816 -0.062082667 -0.22394225 0.05408373 0.01596144 0.05321037 -0.03970499 -0.24093667
-0.053392403 -0.03946068 0.06607695 0.05910648 -0.054731738 0.15458052 0.05035868 -0.032287054

fc2.bias f4 [128]
00000000: b867 75ba d000 a13b 2819 85bc 9134 a4bc
00000010: 0b41 b7bc 81fd a83d 5638 94bd c82f 74bd
00000020: 12e4 903c 1c06 53bc 67cb 9b3d 5654 d9bd
00000030: 0447 18bd 346d a83b f8de b4bc 6e2f bc3a
00000040: 651f 70bd 2b09 983d 38b9 2fbd 9092 afbc
00000050: 84b8 90bd 2eb3 f0bc 7ecd 38bd ee3f 3c3d
00000060: 4630 7a3c 0cd4 5dbd a353 e73b ee3d a33c
00000070: 61a7 83bc 8997 963b fb08 4bbd 3ff8 57bd
00000080: 4ed3 b4bd 6b52 c8bd 2114 4abd f723 0a3d
00000090: f1be 093d a0df 1abd dd30 c7bd b8cf 6bbd
000000a0: 2adc d63d 2fc1 83bd dad8 86bd 3a36 663b
000000b0: 79da 23bd f64d a43c a491 e23c 5fbb 96bd
000000c0: f15b 22bd 8d3c ad3c 48b7 a5bb 4075 b2bc
000000d0: 7d1f 85bd 87f3 3abd 3b87 85bd 1a73 203d
000000e0: 42d6 ca3b 707f 953c 046e 953d f852 d83c
000000f0: 10cb 5dbc 7463 9f3c 19ff 7ebb 5a73 9a3d
00000100: 140b 08be 93bd 813c fe57 a9bc 9dba cabc
00000110: b008 cb3b f726 333c 4357 263d fdaf 073d
00000120: 5990 383c bfcd 31bc 5c43 75bd fc7d 183d
00000130: 3e40 a5bd 8328 263d 89d6 583d 3fbc 8e3d
00000140: c0ed e0bd 2270 d0bc 0654 0bbc 639c aabb
00000150: c642 c8bc 44fc bcbd 44ba a43c 6218 993d
00000160: af0f 083b 7ac5 083c 49c7 a13d c21f 6f3c
00000170: 35e7 fb3b 4ef9 8b3c d8e4 00bd c643 29bc
00000180: 023a e43b e6c5 ac3c 397d b33c 18b7 34bd
00000190: a42e 2fbd 57be 573d 1d09 d93c b83e ea3c
000001a0: 38cb 903d e182 05bb 2bfb 83bd 8892 ae3d
000001b0: f652 b23d a4a4 08bc 5538 74bd f070 27bd
000001c0: 4688 783d 8cb6 c6bc bf43 ae3d 76aa 48bc
000001d0: ce5d 113d 5742 5bbd 38e3 d73c 3518 763d
000001e0: 5c31 5dbd 13c6 923c d3e5 fcbc 9fa9 323d
000001f0: f7d3 27bd b351 a0bd a553 123b cb5c da3b
-0.00093614636 0.004913427 -0.016247347 -0.020044597 -0.022369882 0.08251477 -0.07237308 -0.05961588
0.017686877 -0.012879875 0.07607155 -0.10611789 -0.0371771 0.005139971 -0.022078976 0.0014357397
-0.05862369 0.07423624 -0.042901248 -0.021432191 -0.070664436 -0.029382315 -0.045117848 0.045959406
0.015270298 -0.0541573 0.007059531 0.019926991 -0.016071023 0.004595701 -0.04956911 -0.05272698
-0.08829366 -0.09781345 -0.049335603 0.033725705 0.03362936 -0.03781092 -0.09726117 -0.057571143
0.10491212 -0.06433331 -0.0658433 0.0035127536 -0.040003274 0.020056706 0.027657337 -0.07359957
-0.039638463 0.021147037 -0.005057249 -0.021784425 -0.065001465 -0.045642402 -0.06519934 0.03917227
0.0061900923 0.018249243 0.072963744 0.02640675 -0.013537183 0.019456603 -0.0038909374 0.07541533
-0.13285476 0.015837466 -0.02067184 -0.024747187 0.006196104 0.010934583 0.040610563 0.03312682
0.011264884 -0.010852276 -0.059878692 0.037229523 -0.08068894 0.04056598 0.05293897 0.06969499
-0.10982847 -0.025444094 -0.0085039195 -0.005206631 -0.024445903 -0.09227803 0.02010835 0.07475354
0.0020761301 0.008347863 0.07899339 0.014594974 0.007687474 0.017086651 -0.031468242 -0.0103311
0.006964923 0.02109046 0.021910297 -0.044119924 -0.04276909 0.052671757 0.026493603 0.02859436
0.07070011 -0.00203722 -0.06444391 0.08524042 0.0870723 -0.008340035 -0.059624035 -0.04087919
0.060676835 -0.024256967 0.08509015 -0.012247672 0.03548985 -0.053530063 0.026353464 0.06008168
-0.05400215 0.017916715 -0.030871307 0.043618795 -0.04097363 -0.07828083 0.0022327688 0.006663894

fc3.weight f4 [4, 128]
00000000: 78d5 c33e 7f0c 1b3d dce0 7cbe e5f8 123d
00000010: 71d6 043d 396c 5cbc d3b0 ac3e 6fef 33be
00000020: 1b6f 24bd f177 023e 903d 743d 9c4a 353e
00000030: 9104 673d c9b4 8e3d 2681 02be 147d 353e
00000040: 26fd 083f 395f 4e3d 4171 a93d 03ea c23d
00000050: 35db 04be cdce 56be e10c 343c 0403 c5bc
00000060: 5806 09bd eabb 15bd bcf0 15bd fb6b a0be
00000070: a1ed eabd b9b5 833e 90f4 ff3d b15f 2cbe
00000080: 05d6 97bd 7685 9c3e 1ca2 da3d 5b0e 093d
00000090: b49b 89bd 1c7a 6dbe 1eaa f0be 7958 4e3e
000000a0: 94b3 c13c 20e9 f2be 0ed5 793d 9e9d debd
000000b0: cd7a dc3d 74d5 a73e 382d d33d edaa 0bbf
000000c0: a9a2 d23e 80b7 94bd 2d25 e5bd 115e 263e
000000d0: 6993 b6bc 3442 5e3e c701 073d 1804 983d
000000e0: 16c5 cbbd b077 eebe f700 22bd b80b 89bd
000000f0: 4065 0f3e ac75 6fbe 14fe 413d 9aea 053e
00000100: 3d7f ccbd 347a 84be c5bc 80bd 1553 fd3c
00000110: 4c95 183e bc4e 9d3d 9e7b 80bd 0e63 90bd
00000120: dde9 a23e 0c1c 863e 0c80 a1be 7df5 0abd
00000130: 467b 893e 9da8 663e 7345 9c3d 4899 eebd
00000140: f584 e1bd 2a51 bf3e 4f73 cd3e 4f34 3dbd
00000150: 5afb e9bc f8bb c2bd 1d08 f0bd 5ee4 b93d
00000160: 5e78 8cbd c27a 97be 1f47 013e 3021 cebd
00000170: bd65 52bf e533 5fbe 41db 0a3d 4c90 373d
00000180: 1fc7 653e 492f 87bd 1a2e cb3e 572e dbbd
00000190: 2b8d 833d 4fc4 69be d151 02bd 07c8 5bbd
000001a0: 5916 06bd 955f 9cbd e435 52be 8fb6 dc3e
000001b0: 63e6 193d 7c6d 9dbe 37d1 88be cd92 873b
000001c0: abee 6d3e 64f3 94be 8dc3 e0bd 8717 8dbc
000001d0: 12c4 a4bd 84b9 88be 1301 4fbd c263 b03e
000001e0: ebee d1bd 90a1 b13e 8af8 d5be 10e2 10be
000001f0: e161 b8be aa30 ebbd 10e9 863d a0f5 d53c
00000200: 19d9 193c 1f2a 75bc e1d8 adbe 7d28 163e
00000210: b904 233e 2945 c23d f941 07be 61be d53e
00000220: 28c1 9a3e e153 20be 4ad0 90bd 1689 123c
00000230: 6043 85bd b98b 303e 3de3 863e 2ff4 43be
00000240: b55b 6abe 1e15 79bc 0831 253e 6b38 883e
00000250: 87d9 d03e 4e83 073f b6f5 373e e9d2 b13d
00000260: 3fec ac3d 4d6a 2dbe cf9d 8d3d cff5 073d
00000270: 0cd2 b63d af86 0bbe e05e 9cbe d954 07be
00000280: d36a b3bd e53a f63d e13f d0be 9e1e 5b3e
00000290: acb2 153d f8a0 09bd a82b 6c3e 7ad9 793b
000002a0: a0ef 84bd 977f 773e 6bc8 4bbe 7162 673e
000002b0: 0c04 c5bd c693 cfbd d795 d7be ca8f 48be
000002c0: 928e 3ebd b4db 72be d85e 5fbe 2f99 0a3e
000002d0: 41bc 12be a8a7 203e b274 aa3d 5264 0abf
000002e0: de7f 773d c3b6 b83d 28f4 ae3d 9961 843d
000002f0: a09d ddbd be12 85be b3e1 943c 66e5 1c3e
00000300: 724c fb3e 7e5a b33e 31da cc3d d6e4 5cbe
00000310: f117 6fbc 577b ccbc 08a5 893d b37f d23c
00000320: 581a 2e3e 5bc8 2abc fb9a b43d 0cf7 013e
00000330: 129c 5bbe 1b93 1c3e 7462 abbd f7dd a23d
00000340: b4a9 533e b68d d63e d7aa 893c a5c8 bbbd
00000350: 1c6b debe 41a2 9abd 53bc 41bd 952e 3d3e
00000360: a49e bd3d e387 a13e 0bf3 5fbd a4ba be3e
00000370: c09b 3d3e 0c52 88be 17be aa3d 5aa4 d9bd
00000380: c0d1 1c3d b444 edbc 9e35 be3e c44b 4bbe
00000390: 55a8 6d3e 5bc7 5ebd 0be6 333d 167a 883d
000003a0: b8cd b83d a8c5 cbbe 5170 d5bd 1a22 523e
000003b0: d546 a2bd 0a8e 09be 97ff b8be ae2e b53b
000003c0: 6e11 c5bd 1751 d0be 069e fd3c b0b1 adbe
000003d0: 744a 5bbe 77c6 04be b222 133f 5a76 193e
000003e0: 8958 94bb 754e b6bb 63c8 0c3c 1b95 213d
000003f0: a547 96be 05ee 04bd e470 1d3e c4eb f23b
0.382488 0.037853714 -0.24695152 0.035881896 0.03243107 -0.013453537 0.33728656 -0.17571805
-0.04014502 0.12741067 0.059629023 0.17704242 0.05640084 0.06968076 -0.12744579 0.17723495
0.53511274 0.05038378 0.082735546 0.095172904 -0.12974246 -0.20977326 0.010989399 -0.02404929
-0.033453315 -0.036556162 -0.036606535 -0.31332383 -0.11471105 0.2572458 0.124978185 -0.16833378
-0.07413868 0.30570573 0.10675451 0.033460956 -0.06719151 -0.23191112 -0.4700479 0.20150937
0.0236452 -0.47443485 0.0609942 -0.10869907 0.1076561 0.3278004 0.10311359 -0.5455769
0.41139725 -0.07261562 -0.11188731 0.16246821 -0.022287088 0.21704942 0.03296068 0.07422656
-0.099497005 -0.4657569 -0.0395517 -0.06691688 0.14003468 -0.23384732 0.04736145 0.13077775
-0.09985206 -0.25874484 -0.06286005 0.030923406 0.14900702 0.07681033 -0.06273578 -0.07050143
0.3181905 0.26193273 -0.31543005 -0.033925522 0.26851863 0.22525258 0.07630434 -0.1165033
-0.11011688 0.3736661 0.40127036 -0.046192463 -0.028562237 -0.095085084 -0.117202975 0.09076761
-0.06858896 -0.29585844 0.12624787 -0.10064924 -0.8218649 -0.2179714 0.033900503 0.044815347
0.2243924 -0.06600816 0.3968361 -0.10702198 0.0642341 -0.22828792 -0.031816307 -0.053657558
-0.032736156 -0.07635418 -0.2052837 0.4310803 0.03757323 -0.30747592 -0.26722118 0.004137373
0.23235576 -0.29091942 -0.10974798 -0.017223133 -0.0804521 -0.26704037 -0.050538134 0.3445111
-0.10250648 0.34693575 -0.41791183 -0.14148736 -0.36012176 -0.11483891 0.06587422 0.0261181
0.009390139 -0.014963656 -0.33954528 0.14663883 0.1591977 0.094858475 -0.1320876 0.4174681
0.30225492 -0.15656997 -0.07070978 0.008943817 -0.065069914 0.172408 0.26345244 -0.19136117
-0.22886546 -0.015202789 0.16131985 0.26605543 0.4079096 0.5293473 0.17964825 0.08682806
0.08443498 -0.16935082 0.06914865 0.033193406 0.08926782 -0.13625596 -0.30541134 -0.1321596
-0.087606095 0.12022952 -0.40673736 0.21398398 0.036547348 -0.033600777 0.23063529 0.003812401
-0.06491017 0.24169765 -0.19900672 0.22596146 -0.096199125 -0.101356074 -0.42106506 -0.19586101
-0.046522684 -0.23716623 -0.21813524 0.13534997 -0.14329626 0.15688956 0.08323039 -0.54059327
0.060424678 0.09019234 0.08542663 0.06463928 -0.1082108 -0.25990862 0.018174028 0.15321884
0.4908176 0.35029978 0.10002554 -0.21571669 -0.01459311 -0.024961157 0.0672093 0.025695657
0.17002237 -0.010423745 0.08818623 0.12691897 -0.21446255 0.15290491 -0.08368388 0.07952493
0.20670205 0.41904992 0.016805096 -0.09169129 -0.43441093 -0.07550479 -0.04729874 0.18474801
0.09258774 0.31548986 -0.054675143 0.3725177 0.18516445 -0.26625097 0.08337038 -0.10627051
0.03828597 -0.028963424 0.37150282 -0.19853121 0.23208745 -0.05438934 0.043920558 0.06663911
0.09023613 -0.39799237 -0.10421813 0.20520821 -0.079236664 -0.1343309 -0.361325 0.0055292463
-0.09622465 -0.40686867 0.03095914 -0.33924627 -0.2141512 -0.12966333 0.57474816 0.14986554
-0.004527156 -0.005563552 0.008592698 0.03944884 -0.29351535 -0.032453556 0.15375096 0.0074133594

fc3.bias f4 [4]
00000000: 5aff 1e3d 798d 21bd 4a60 1a3d 6d6e 8ebc
0.03881774 -0.03944156 0.037689485 -0.01738664
