checkpoint_critic.pth (torch_old, 169968 bytes, 5 tensors)

fcs1.weight f4 [256, 33]
000000 75 e4 b1 3a fd db 10 3d 72 d1 35 3d 56 b0 09 bd
       0.0013572114 0.035366047 0.044389196 -0.033615433
000010 54 53 bd 3b de e3 86 bb 6d 49 fe 3d 2c 3d 31 3d
       0.0057777558 -0.0041165194 0.124163486 0.04327123
000020 93 75 ae 3d 47 ba ce 3c e2 2d 32 3d ef 4d 92 bd
       0.08518519 0.025235308 0.04350079 -0.07143771
000030 da bd 95 bd 38 ca 6a 3d dd 50 2c 3d b1 75 ca bc
       -0.07311602 0.057321757 0.042069305 -0.024714323
000040 b2 d6 6b 3c 17 4f 3b bd 7e ae 9c ba 96 c7 e4 bb
       0.014394449 -0.045729723 -0.0011953858 -0.0069818003
000050 0e 75 0f bc 70 7b 7e 3d 0d d4 38 3d ad db 88 3d
       -0.008755935 0.062129438 0.045124102 0.06682525
000060 4f e3 04 bd ba c2 06 3d 48 35 04 bd 34 2d cb bc
       -0.03244334 0.03290055 -0.032277375 -0.024801828
000070 fa f3 0b bd 80 6a 4e bd 9d 22 15 bd be 99 25 3d
       -0.03416822 -0.050394535 -0.036409963 0.040429823
000080 54 0b 8e bd 16 b9 51 3c a9 4d d1 bd 7a bc 58 bd
       -0.069357544 0.012800476 -0.102198906 -0.05291412
000090 18 c8 ac 3c a7 22 7c 3d 57 44 a2 3d fe 6d 40 bc
       0.021091506 0.061556485 0.07923191 -0.011744974
0000a0 70 df d9 bb 55 da e4 3c e2 99 60 bc 29 cf c2 3c
       -0.0066489503 0.02793614 -0.0137085635 0.023780422
0000b0 68 f5 52 3d 18 a9 ac 3b c3 66 6d 3c d4 eb 94 3d
       0.05150357 0.005269181 0.014489832 0.07271543
0000c0 21 a2 12 3d db b5 74 3c 1b 90 49 3d 9b 15 94 3d
       0.03579915 0.014935936 0.049209695 0.072306834
0000d0 cd 77 4c bd a9 eb 75 3a 65 b8 14 bd 9c 3e 4a 3d
       -0.04991894 0.00093811244 -0.036308665 0.049376115
0000e0 a8 3a e7 bc ef 14 2a 3d 8a 03 1f 3c b2 6f 46 bd
       -0.028226212 0.04152387 0.009705434 -0.048446365
0000f0 47 32 c2 bd 4d 7c 89 3d 30 f6 a3 3c 0f 6a a5 3d
       -0.09482246 0.067131616 0.020014852 0.0807687
000100 a0 9a 9d 3b 35 be 86 bc 79 97 c0 bc 5b a8 42 3d
       0.0048096925 -0.01644812 -0.023509728 0.047523838
000110 81 8f 43 3d bf 0a f3 bc 45 bb 14 3d 5f 85 cd 3d
       0.047744278 -0.02966821 0.036311407 0.10035204
000120 c3 86 8b bc fa b3 52 bc 05 12 e4 bd 60 c2 88 3d
       -0.017032033 -0.012860293 -0.111362495 0.06677699
000130 11 de 07 3d 10 16 2d 3d a4 56 76 bc 50 4c bf 3b
       0.033170763 0.04225737 -0.015035305 0.0058379546
000140 64 07 82 3d 25 cb ae bc 64 82 00 3d 0e e7 5e 3d
       0.06349066 -0.021337101 0.03137435 0.05441957
000150 32 a9 79 bd 49 d2 e7 bc 7b e9 f4 bc c7 4d ab 3b
       -0.060952373 -0.028298514 -0.029896488 0.0052277776
000160 c2 a5 ac bd be 9d 0c 3c 15 93 ba 3c 84 d6 26 bd
       -0.08430053 0.008582531 0.022775212 -0.04073192
000170 f1 d8 76 3d 2c a6 90 3d dc 52 14 bc 40 2e 51 bb
       0.060265485 0.07062945 -0.009052958 -0.0031918436
000180 f8 3c 63 bb 1e 99 5e bd 68 f0 51 3e 4c fb e7 3d
       -0.0034673791 -0.054345243 0.20501864 0.11327228
000190 6f fe 58 bb 8e c9 fd 3d 59 a5 c1 3d 9e b1 cc bc
       -0.0033110639 0.12391959 0.09455366 -0.024987038
0001a0 a7 d4 64 3d 84 ae a6 3d 93 66 08 bc 8c ae 36 bd
       0.055866864 0.08138755 -0.008325237 -0.044600055
0001b0 69 b4 2a 3c b5 24 9c 3c 09 f2 67 3c 4a 68 a9 3c
       0.01041899 0.019060472 0.014156827 0.020679612
0001c0 db 93 22 bd a3 1e 26 3d cf fe 67 bd e6 2f 6b bc
       -0.039691787 0.04055656 -0.05663949 -0.014354682
0001d0 29 8b f5 3c f2 2c 38 bd e4 32 3c 3d 73 2d 64 bb
       0.029973583 -0.04496474 0.04594697 -0.003481713
0001e0 07 d5 51 3d 9d e9 80 bd 72 c8 da bc 5e 51 a7 3b
       0.05122855 -0.06294558 -0.026706908 0.0051061353
0001f0 14 0f a7 3b f9 04 e4 3c 3f 02 4e 3c 5c 1c 8a bc
       0.005098233 0.027834402 0.012573778 -0.016859226
000200 b8 a0 ca bc 0a f2 b8 3d 80 c6 33 bc 22 b9 77 bc
       -0.02473484 0.0903054 -0.010972619 -0.015119823
000210 d0 6b 89 3d 44 80 12 bd 49 47 ae bc a7 9d df 3b
       0.06710017 -0.035766855 -0.021274226 0.0068242135
000220 71 5a 0d bd bc e9 d5 3d 1f 6d 02 3e f6 20 94 3c
       -0.03451008 0.10444972 0.12736939 0.018082123
000230 83 54 8f bd db d9 26 3d 37 ae 15 bd 0d 8d 89 3d
       -0.06998541 0.040735107 -0.036543097 0.067163564
000240 44 80 44 3c 8a a2 80 3d 64 7c 8a 39 c6 0f 0a bd
       0.0119934715 0.06281002 0.0002641409 -0.03370645
000250 4c c9 11 3d 50 ff 97 bb 3b ef 5c bd 66 52 af bc
       0.035592362 -0.00463859 -0.053939085 -0.021401595
000260 c9 23 d1 3c b4 19 e5 3a 64 c7 2a 3d 84 b1 32 3d
       0.025529759 0.0017478974 0.04169406 0.043626323
000270 07 af da 3c ac 57 12 3c a5 26 47 3c d0 06 f1 3b
       0.026694788 0.008932035 0.01215521 0.0073555484
000280 d2 69 c1 bc 58 d9 92 3c 1d d9 73 bc 94 a1 88 3c
       -0.02361003 0.017925903 -0.014883307 0.016678609
000290 f8 8c 18 bc e5 f9 6f bd a8 cf 88 3d 77 2a 36 bd
       -0.009310953 -0.058587927 0.06680232 -0.04447409
0002a0 52 66 c1 bb 0a a3 cd bc dd 8e e3 bc 46 29 61 3d
       -0.00590209 -0.025102157 -0.027778083 0.054971002
0002b0 18 8e 14 39 b7 72 b1 bd 64 30 07 bd bb b2 f6 bb
       0.00014167314 -0.08664458 -0.033005133 -0.0075286306
0002c0 80 ee b6 bc ed ce 86 bc 9a 71 f3 3d 87 9e b7 bd
       -0.022330523 -0.016456092 0.11886902 -0.089657836
0002d0 10 47 54 3b 87 dd 50 3c 40 61 f8 3b ae 08 4c 3b
       0.003239099 0.012748129 0.0075799525 0.0031133103
0002e0 25 85 a1 bc d5 8f 70 bc 44 cb 56 bc 5d 75 2a 3d
       -0.019716809 -0.01468273 -0.013109986 0.041615833
0002f0 ed 3e 9e 3a 29 69 d2 bc d7 97 5c bc ef b7 98 bd
       0.0012073197 -0.02568491 -0.013463936 -0.074569575
000300 94 9b 31 3d eb 44 32 3c a4 1a 44 3d 1a 28 21 bd
       0.04336126 0.010880689 0.04787697 -0.039344884
000310 c8 80 19 3c bb 87 0d 3e 91 53 c2 3c 95 f3 82 bb
       0.009369083 0.13821308 0.023721488 -0.0039963224
000320 71 e2 ee bc 08 e7 9c bd 11 ed 84 bd 6c 25 80 bc
       -0.02916071 -0.07661253 -0.06490529 -0.015642844
000330 a8 2d f7 3d 60 2a 83 bc 0a 65 f0 bb e7 eb 8f bd
       0.12069255 -0.016011417 -0.0073362635 -0.07027417
000340 ab 83 41 bc ad ab 79 bc 70 7b f5 3c 73 49 83 3d
       -0.011811177 -0.015238685 0.029966086 0.06410494
000350 ba 91 98 bd 4b e6 4b bc a7 be 13 3e 4c 30 09 3d
       -0.0744967 -0.012445043 0.14428197 0.033493325
000360 b6 ef 47 3c a8 e1 48 3c d2 ef 03 3c 44 e4 17 bc
       0.012203148 0.012260832 0.008052783 -0.009270731
000370 e7 12 a5 3c 35 de 97 3a c2 e1 ad 3b 3a cb b0 bc
       0.020150615 0.0011586609 0.0053064534 -0.021581281
000380 35 08 8b bd e9 32 c8 3d c1 9d f0 3c 64 81 43 bd
       -0.06788675 0.09775335 0.029372098 -0.04773082
000390 86 a0 fd bd 80 9d be 3a f0 c8 5c 3d a3 e7 01 3d
       -0.12384133 0.0014542788 0.053902566 0.031715047
0003a0 b0 63 4b 3d 02 fe e0 3c 21 2c 40 38 9f 62 0f bb
       0.049655616 0.02746487 4.5817465e-05 -0.002187885
0003b0 ba ce e9 bd b6 38 11 3d 04 8b 9e 3c d6 0e a4 bd
       -0.11416383 0.035454474 0.019353397 -0.08010642
0003c0 a2 ec cc 3c cb d1 a2 bd d6 02 76 bc 10 d5 34 bd
       0.025015179 -0.07950171 -0.015015325 -0.044148505
0003d0 8f 41 29 3d 23 79 d2 bd 36 d0 64 bd c4 bc 95 bc
       0.041322287 -0.10277011 -0.055862628 -0.018278487
0003e0 64 8b fa 3b 93 22 e5 3a 5d 0f b2 3c 6a 8d 15 bc
       0.007646011 0.0017481617 0.021735841 -0.009127954
0003f0 59 01 bf bd b0 38 46 3d 8a c7 a1 3d 87 57 d4 bd
       -0.09326429 0.048393905 0.07899387 -0.10368257

fcs1.bias f4 [256]
000000 64 5e 75 3d 06 c1 4b 3e d8 aa 9a bd 1f e3 3d 3e
       0.05990447 0.19897851 -0.07552117 0.18543671
000010 da 57 9a 3c b8 4d 3d be e7 47 69 be e8 fd 24 be
       0.018840719 -0.18486679 -0.22781335 -0.16112483
000020 47 14 a5 3c 9a da 08 3e 36 6b 01 be 1e 49 77 bd
       0.02015127 0.1336464 -0.12638554 -0.060372464
000030 cd e2 ba 3d 7f f7 40 bd c9 1f 35 3d f1 30 80 bc
       0.0912529 -0.04711103 0.044219766 -0.015648337
000040 29 b2 5d bd a4 43 18 be 91 d7 cd 3d bc 7e c3 bd
       -0.054124985 -0.14869553 0.10050882 -0.09545657
000050 dd 1c 15 bd 2f 26 c6 3c 25 97 88 3d 9a 8c e1 3c
       -0.03640448 0.02418813 0.066694535 0.027532864
000060 9d 18 4c bd 94 99 b9 bd f7 b6 23 bb 5f e0 56 bd
       -0.04982816 -0.09062496 -0.0024980882 -0.05246007
000070 e3 1f 58 3d e0 be eb 3c 4a 8c 0e 3d 4f 7a 96 bd
       0.052764785 0.02877754 0.03480176 -0.07347547
000080 27 dd 23 be e2 a0 dd bd 7e d1 80 3d a4 66 8f b9
       -0.16002332 -0.108217016 0.062899575 -0.0002735156
000090 c3 14 19 3e 5d 28 0f 3e 86 be 99 bd c5 32 85 3d
       0.14949326 0.13980241 -0.075070426 0.06503824
0000a0 56 b6 c4 bd b2 d5 d0 bd d4 50 2f 3d 8b 09 f0 bd
       -0.0960509 -0.10197009 0.042801693 -0.1172057
0000b0 a9 8f 77 bc 67 87 19 be 69 50 a3 3d e1 90 77 3d
       -0.015109935 -0.14993058 0.079743214 0.0604409
0000c0 7a 12 c8 3d 93 85 ee bd 8d 90 ef bd 6d ba c0 3d
       0.09769149 -0.11646571 -0.11697493 0.09410558
0000d0 fe 73 e5 bd 38 82 9e bd 47 82 0d be ad 07 af 3d
       -0.112037644 -0.07739681 -0.13819228 0.08546386
0000e0 5a 8d 2e bd a0 28 73 bd 62 6e a3 3c 9a ed fc 3c
       -0.042615272 -0.059364915 0.019950096 0.030875016
0000f0 aa 73 14 be 57 ef 32 3e ce f5 39 be 3b 94 5d 3b
       -0.14497247 0.17474113 -0.18160173 0.0033810276
000100 4b 07 13 be 5c aa c1 bd 87 8f fd 3d 15 5a 06 3e
       -0.14358251 -0.094563216 0.12380891 0.13120301
000110 84 5e 46 3d 6f 21 95 3c 49 da de 3d 62 3d 1c 3d
       0.04842998 0.018204419 0.10881478 0.038144477
000120 7f 31 63 bd fa c8 e6 bd 93 7a 08 bd c0 ea 2c 3e
       -0.055467125 -0.11268802 -0.03332002 0.16886425
000130 07 b2 bd 3d 89 8f 89 bd 91 4b a5 3d 80 d5 d9 bd
       0.09262472 -0.0671683 0.08071054 -0.10636425
000140 ec 03 bc 3d 8b 8f 26 3e 17 d3 c1 3b 83 9a a9 3d
       0.091804355 0.16265695 0.0059150564 0.08281424
000150 57 d7 95 3d 1d f6 ca bd 56 f1 08 3e 6b 40 98 3c
       0.073164634 -0.09910224 0.13373312 0.018585404
000160 d5 cd e7 3d 8d f8 9e 3d 45 df ed 3d db bc 60 3b
       0.11318556 0.07762251 0.11614851 0.0034292254
000170 17 4b ca 3d 7c c7 3a be bc 59 50 be ad 5d 68 3d
       0.098776035 -0.1824016 -0.20346731 0.05672996
000180 67 da 25 3e cd 4d 17 bd 58 d6 a8 3d 04 7e 90 bd
       0.16196595 -0.03693943 0.08244008 -0.070552856
000190 ee 4e d9 3d b6 15 7f bd b0 1f 5b ba dc 97 e8 bd
       0.10610758 -0.062276565 -0.0008358909 -0.1135709
0001a0 91 3e 45 be 02 14 bd 3d 65 7f c0 bd b1 5f 15 3e
       -0.19262148 0.09232332 -0.093992986 0.14587285
0001b0 06 ee 85 3d 6c 70 c2 bd 4c eb 46 3e 11 63 39 3e
       0.0653954 -0.09494099 0.19425696 0.18104197
0001c0 30 ed b2 bd 7c a7 10 3e 9c eb 59 3d aa 34 03 be
       -0.08736646 0.1412639 0.05320321 -0.12813058
0001d0 a9 e0 3e 3d 2f 53 18 be 02 21 38 3d a7 b4 32 be
       0.04660097 -0.14875482 0.044953354 -0.17451726
0001e0 13 c5 17 3e 0e 60 dd 3c 48 05 39 3e d3 01 9a ba
       0.14821272 0.027023342 0.18068421 -0.0011749811
0001f0 10 28 65 bd a0 6b e2 3d 58 84 a8 3d 27 ea cb 3d
       -0.05594641 0.11055684 0.082283676 0.099567704
000200 82 1c a2 bc 87 07 2e 3e fd 70 05 be 08 47 50 be
       -0.019788984 0.16995059 -0.13031383 -0.20339596
000210 43 20 00 3d fb 39 54 3e 6a fc 33 3c a6 3e b1 3b
       0.031280767 0.20725243 0.010985473 0.0054090796
000220 47 73 45 be 62 22 0b 3e ac cc 7c be 70 da e3 bd
       -0.19282256 0.13587335 -0.24687451 -0.11125648
000230 06 ae dd 3d cf 44 b3 bd da 59 dd bd 7c 8d 1f be
       0.10824208 -0.087533586 -0.108081535 -0.15581316
000240 ab bd c8 3d ae db b9 bd 2d e5 4c bd e9 bd 90 bd
       0.09801801 -0.09075104 -0.050023247 -0.070674725
000250 b0 17 89 3d 37 9b 1d 3e 8f db 44 3d 03 ff 8a 3c
       0.06693971 0.15391241 0.04806095 0.016967302
000260 d2 25 fb bc 46 a2 8f 3a 26 27 42 3e 89 c0 f1 3b
       -0.030657683 0.0010958395 0.18960246 0.0073776883
000270 5d 33 eb 3d 58 dd 29 bd ab c5 89 3c 71 ee 38 be
       0.11484406 -0.041470855 0.016817888 -0.18059708
000280 48 45 af bc 92 27 85 bd c7 80 a7 bd 68 4c 3d be
       -0.02139534 -0.06501688 -0.08178859 -0.18486178
000290 a1 af 0e 3d 34 98 0e 3d 90 ad 05 3e e1 d8 7c bc
       0.03483546 0.03481312 0.1305449 -0.015432567
0002a0 df ac a0 bc 7d b7 8a 3d ec 2d 58 bc 42 5c f5 3d
       -0.019613681 0.06773279 -0.013194542 0.119804874
0002b0 8c f4 e9 3d 1b a1 28 3e da 72 c2 3d c4 b8 e4 3d
       0.11423597 0.16467707 0.094945624 0.11168054
0002c0 1e 2c cb 3d ec c0 4c bd 5c e0 32 3e 2c cf 04 be
       0.09920524 -0.049988672 0.17468399 -0.12969655
0002d0 c5 d8 6b bd 45 0c 0c 3d 0a c6 18 be 72 d1 09 be
       -0.057579774 0.03419139 -0.14919296 -0.13458803
0002e0 8e c2 56 3c 7f 09 b0 bc 2b 7b 3c bd f6 aa 3a bd
       0.013107909 -0.021488903 -0.0460159 -0.045573197
0002f0 3e a1 a1 bc 71 e5 67 3e 8a c9 a8 bd 37 79 d6 3d
       -0.019730207 0.22646119 -0.082415655 0.10472339
000300 0c 4a 73 bc b3 6e 1c 3e 1d 7a 13 3e 79 aa 5f bd
       -0.014849197 0.15276603 0.14402051 -0.054605935
000310 5a e0 3d bd ef 9c f6 bd 5b 2d 42 bd 9e d4 47 bd
       -0.046356536 -0.120416515 -0.047406536 -0.048786752
000320 7c 00 a5 bc 24 0f 38 3c 86 6f b2 3c ee 29 ef bd
       -0.020141833 0.011234079 0.021781694 -0.11677919
000330 8d 5b 98 3d b3 49 22 3d bf a1 79 bd 52 22 7b 3d
       0.07439337 0.039621066 -0.06094527 0.061312027
000340 1a 94 0a be 5d 0d 3b bd 8c 36 1c 3e 84 f6 55 3d
       -0.13533059 -0.04566704 0.15255183 0.05223705
000350 d9 21 ff 3d 81 c1 fe bb 59 29 22 bd 77 97 2c 3e
       0.12457628 -0.0077745323 -0.039590213 0.16854654
000360 18 ce 59 3d 1a ff cf 3d f5 77 0f 3d 8b f2 5d 3d
       0.053175062 0.10156079 0.03502651 0.054186385
000370 0a 21 6a 3d 94 2c ae bd 8a 1d 35 be b4 b0 7d be
       0.057160415 -0.08504596 -0.1768705 -0.24774438
000380 8e 32 19 3e 1f ef 0e be 4d 79 ff bd 97 3e 8e 3c
       0.14960691 -0.13958405 -0.12474308 0.01736383
000390 a4 d2 a8 bd 00 d5 6d 3c 95 cd 4b bd 98 60 2e 3e
       -0.082433015 0.014516115 -0.049756605 0.17029035
0003a0 65 3a 65 be 4b 2e 68 be 6e fa d5 3d 1f 4c 3e bd
       -0.22385557 -0.2267391 0.10448156 -0.046459313
0003b0 f4 79 1b 3d 69 42 de 3c fa c1 16 bd fa 12 8e bd
       0.0379581 0.027131276 -0.036806084 -0.06937213
0003c0 a3 29 08 3d 1b 1e 14 be a6 95 32 3e fb 70 45 3c
       0.033242833 -0.1446461 0.17439899 0.012050862
0003d0 a9 e9 1b 3e b1 4c a0 3d 39 7f af 3d a0 db a4 3d
       0.15225853 0.07827128 0.08569188 0.08049703
0003e0 36 d7 e1 3d 31 c9 0b be 82 fd 99 3d 86 1f 89 bd
       0.11027376 -0.13650967 0.07519056 -0.06695466
0003f0 51 37 9e 3d 86 80 a5 bd a7 73 83 3d eb 13 ef 3d
       0.077253945 -0.080811545 0.06418543 0.11673721

fc2.weight f4 [128, 260]
000000 1d 6c 0d 3d 1e 38 b9 bc 95 6d 9d 3d 0b 11 11 bd
       0.034526933 -0.022609767 0.07686917 -0.035416644
000010 8c 9b e6 3d 7b 50 bf bc b1 63 a4 bd 50 6d d2 3d
       0.11260137 -0.023353806 -0.08026827 0.10274756
000020 b8 70 cf bc ed 88 88 bd 1c 8d 91 3c a4 89 ff 3c
       -0.025322303 -0.066667415 0.017767482 0.031193562
000030 a4 d7 1b bb f1 3e 89 3d f4 2d b4 bc c3 62 3f 3d
       -0.0023779655 0.06701458 -0.021994568 0.046725046
000040 98 88 e9 bd 4d 3d bd bc 51 1b cc 3c d6 bc 17 3e
       -0.11403006 -0.02310052 0.02491537 0.14818129
000050 48 ac a9 3c 7f ed a3 bd 47 d4 e9 3b 1f d8 32 bd
       0.020712033 -0.08004283 0.007135901 -0.04366314
000060 ec 55 a4 3d 37 33 f1 bb f7 cd f1 bc 79 e5 fd bd
       0.08024201 -0.0073608416 -0.029517157 -0.12397284
000070 4a c7 de 3d 7c 43 c2 3c 4a c0 10 3c b3 55 35 3d
       0.10877855 0.02371382 0.008834908 0.044271182
000080 fe 52 22 3e 1a e9 63 3d 01 ca 12 3d 89 d9 67 bd
       0.15851972 0.055642225 0.035837177 -0.056603942
000090 c7 c2 b5 3d 36 38 59 bc 40 8a c0 3d 1f 07 f7 3b
       0.088750415 -0.013258031 0.09401369 0.0075386907
0000a0 e7 12 de bd c6 82 92 bd 4a e8 b2 bd fc 87 cf 3c
       -0.10843449 -0.07153849 -0.08735712 0.025333397
0000b0 7b 8a ad bc 2f 93 02 3b 7d bd 85 bb dc fb 92 3b
       -0.021184197 0.0019924154 -0.0040814267 0.0044855904
0000c0 65 47 8a bd 48 d9 39 bd 5b fe 03 3a 68 d6 2f 3d
       -0.06751899 -0.04537323 0.00050351553 0.042929083
0000d0 66 51 20 3d ac 68 99 bc a6 b6 84 3d 6f 8b ea bc
       0.039140128 -0.01872667 0.0648015 -0.02863094
0000e0 12 1d 80 bd ee 67 4d 3d 9c 8f 9e bd e2 69 e1 bc
       -0.06255545 0.050147943 -0.07742235 -0.02751631
0000f0 31 40 bb 3b fd e2 52 3d d5 b5 19 3d 0d 88 43 3d
       0.0057144393 0.051486004 0.037526924 0.04773717
000100 a8 98 13 3d 74 93 8c 3d 0d 3f 6e 3c d1 50 7b 3d
       0.036034256 0.06864062 0.0145414 0.06135637
000110 e2 eb b1 bb 9e a2 07 bd e5 df 17 be 15 75 86 bc
       -0.0054297308 -0.03311407 -0.14831503 -0.016413251
000120 00 f1 82 bc 3a a5 8b 3d 85 4a 36 bd de 2b 90 3b
       -0.015984058 0.06818624 -0.04450466 0.0043997606
000130 de 75 d5 bd ec aa e1 3d 5b 15 97 3d f5 65 cf bc
       -0.10422872 0.11018929 0.0737712 -0.025317172
000140 96 d4 fd bc 4a e4 5c bd 35 b7 28 bd e2 25 d5 bc
       -0.030985158 -0.05392865 -0.041190345 -0.02601904
000150 35 e8 7a 3d 05 79 8a 3d 04 c2 60 bd 87 82 e8 3c
       0.061256606 0.06761364 -0.054872528 0.028382553
000160 b7 93 29 be 76 8b b3 bd d7 53 9e 3b 81 4d 5b bc
       -0.16560255 -0.087668344 0.004831772 -0.013385178
000170 0c 62 c7 3c 76 e9 06 be 15 cf 36 3d 02 92 b8 3b
       0.024338745 -0.13174996 0.044631083 0.00563264
000180 a7 97 7e 3d 29 35 ad 3c ca 20 63 3d 34 54 8c 3d
       0.062156346 0.021143513 0.055451192 0.06851998
000190 56 ed be 3b 4e 65 01 bd 2c e8 0a bc 41 65 7a 3d
       0.0058266325 -0.031590752 -0.008478206 0.06113172
0001a0 c0 75 8b bd 83 65 01 3e 15 0b aa 3d ed cf 7c 3d
       -0.068095684 0.1263638 0.08302895 0.06172173
0001b0 cf db a5 3d 83 8d 56 3d 12 d8 4d bb 57 78 a2 3d
       0.08098566 0.05238105 -0.0031409306 0.07933109
0001c0 3a d6 93 3d 15 a4 50 bc bf 25 35 bc a7 67 9c bd
       0.07218595 -0.012734433 -0.011056363 -0.076369576
0001d0 71 b7 2c bd 5d b1 71 bd 04 da 7f ba d8 4c 43 3c
       -0.04216713 -0.059007037 -0.0009759965 0.011920176
0001e0 9c bd c4 bd 7e df 1d 3c 1d 4c 34 bd 78 7a 2a be
       -0.096064776 0.009635804 -0.0440179 -0.1664828
0001f0 95 d9 e9 3c 21 43 df 3b 9c 98 c6 3d 1a 37 fa 3c
       0.028546134 0.0068134223 0.09697077 0.030543853
000200 50 76 ff 3d a6 da ff 3d 10 1b 59 be 15 c9 5c 3d
       0.12473738 0.12492876 -0.2120173 0.053902704
000210 94 3d a7 3d 89 c5 da bd e3 f4 a8 bc de 75 d7 3d
       0.08166042 -0.10682208 -0.020624584 0.10520528
000220 ea 66 e8 3d 40 9b 0a bd 0e 3b 96 bc 76 78 0f 3e
       0.11347754 -0.033839464 -0.018338706 0.14010796
000230 31 42 90 3c 05 0d f7 bc d9 ce 17 bc 9a ee b2 3d
       0.017609688 -0.030157575 -0.009265625 0.08736916
000240 b8 37 af 3d c1 70 be bc 5b 6d 65 3b a4 29 05 bd
       0.085555494 -0.023247125 0.0035007808 -0.032510415
000250 f3 f8 35 3c 10 c5 47 bd 3b 7c 60 bd c6 72 e0 bc
       0.011106717 -0.048771918 -0.054805975 -0.027398478
000260 60 1f 3b bc 05 45 e3 3d 1d 88 ab 3d 2d 12 96 bd
       -0.011421055 0.11097149 0.08375571 -0.073276855
000270 2f 87 8b bd 10 ed 5a 3d 7b 63 ce 3d 26 2f c8 3d
       -0.068128936 0.053448737 0.10077568 0.09774618
000280 c5 11 9a bd fe e9 80 3d e3 55 11 3e a6 ed 03 3d
       -0.075229205 0.062946305 0.1419292 0.03220906
000290 4a 1d 92 3d e6 9d 2d bd 9c e3 bf bb 8a c8 68 3d
       0.07134493 -0.04238691 -0.0058559906 0.056831874
0002a0 3c cf 91 3d 4e 57 91 bd 2f df aa 3d a3 9c 0c be
       0.07119605 -0.0709673 0.0834335 -0.13731627
0002b0 ba c3 20 bd 2e 8f a6 bd 8b 7f 8b 3d a3 e0 70 bd
       -0.03924916 -0.08132778 0.06811436 -0.05880798
0002c0 64 ef a4 bd b6 f8 08 bd 1f 54 d8 3c 4a 0d 7e 3d
       -0.08053473 -0.033440314 0.0264073 0.062024392
0002d0 5a 9e b9 bd 43 02 73 3d 43 ca 34 bd 04 38 8b 3d
       -0.09063406 0.05932833 -0.044138204 0.067977935
0002e0 98 12 07 3d b2 54 d9 bb 70 a3 7f 3d 40 31 cc 3c
       0.032976717 -0.006632411 0.062411726 0.024925828
0002f0 99 cd c6 3d 08 65 72 3d 18 39 b3 bc 95 b5 db bc
       0.097071834 0.059178382 -0.02187781 -0.026819983
000300 04 89 99 bc 10 22 f7 3d 6d 1d b1 3b 06 ff 46 3d
       -0.018742092 0.12067044 0.005405119 0.048583053
000310 e8 fc d8 3d b2 c6 9e bc 29 e8 e4 3d e1 b1 98 bd
       0.10595113 -0.019381855 0.111770935 -0.07455803
000320 23 75 8a bc 07 da 9a 3d 55 3e 18 bd 76 f9 69 bd
       -0.016901558 0.07561117 -0.03716882 -0.05712267
000330 7d 5c 9c bd a6 73 52 3d 9b b6 8d 3c bf 1f 8f bc
       -0.07634828 0.051379822 0.017298987 -0.017471192
000340 cd 51 15 3d ab 15 84 bb ab 7d 9d bc 6f b1 9c 3c
       0.036454964 -0.0040309033 -0.019224962 0.019127576
000350 92 cc 80 3d c3 cd 2c bc a5 fa ec 3b e4 74 fa bd
       0.06289019 -0.010547104 0.0072320276 -0.12229326
000360 cd 62 c4 3c 1a 7d 32 3c 75 a3 aa 3d 91 b4 0d bc
       0.023972893 0.010894084 0.08331958 -0.008649007
000370 fe 46 c4 3b 30 8e d6 3d 82 72 d8 bd bf 05 14 be
       0.0059899082 0.10476339 -0.10568716 -0.14455317
000380 9c 5e 54 3b a7 84 9b bd 57 b7 b4 bc 54 2f c2 3d
       0.0032405024 -0.07593661 -0.02206008 0.094816834
000390 79 1e 0d be 54 ac 50 3d eb da 63 3d 31 b3 ba 3d
       -0.13781156 0.050945595 0.0556287 0.09116209
0003a0 cb 0b 28 be c8 5e d2 3d d6 4b bc 3c a6 1a d9 bd
       -0.16410749 0.10271984 0.02298538 -0.10600786
0003b0 25 c4 19 3d 3d 98 80 bd bf 7f 17 be bc ec 6b 3d
       0.037540574 -0.06279037 -0.14794825 0.057598814
0003c0 b0 49 dc bd 44 30 02 3e a6 39 a5 bc 9c 5d 7f 3c
       -0.10756242 0.12713724 -0.02016909 0.015586283
0003d0 02 ec a1 3d b7 b0 66 bd 66 2b 9a bd be fd 6a bc
       0.07906343 -0.056320872 -0.07527809 -0.014342723
0003e0 c3 ed ef bc 3b 0c f7 3c 32 71 9d bc 22 a3 a4 3d
       -0.029288178 0.0301572 -0.019219015 0.080389276
0003f0 40 e5 fc 3d 13 cf 1c 3e fe 23 0e bd a8 dd 1a bd
       0.123484135 0.15313368 -0.034702294 -0.037809044

fc2.bias f4 [128]
000000 dc cd 21 3b f1 45 bb 3c 92 d8 91 3d 5b 00 7e bd
       0.0024689352 0.0228605 0.07121386 -0.062012058
000010 0e 5a 4c 3d 3b 21 b9 3d 48 87 a4 bd ae f8 37 3c
       0.04989057 0.09039541 -0.08033615 0.011228723
000020 80 d5 6a 3d df a9 60 3c 57 c4 0f bd 68 c5 9d 3c
       0.057332516 0.013712375 -0.035099354 0.01925917
000030 fc 76 35 bc 70 78 bd bd 5c 43 17 bd 89 85 68 bd
       -0.011075731 -0.09251487 -0.036929473 -0.056767974
000040 0b 11 16 3c ac 01 95 3b e6 2d 2c 3d 05 b8 5e 3d
       0.009159337 0.0045473184 0.04203596 0.054374713
000050 db 31 c2 3d cf 34 f5 3d fe 94 01 bd 2d 93 75 bd
       0.094821654 0.11972963 -0.03163623 -0.05995481
000060 40 ef bc 3d 3d 31 e7 3a 6f 8d 06 3e 50 b3 93 bd
       0.09225321 0.0017638576 0.1313989 -0.072119355
000070 53 b3 76 3b ca 92 2f bd 3c a6 6e 3d fe 8a aa 3d
       0.0037643507 -0.0428646 0.058264002 0.08327292
000080 f0 c9 25 3d bc d7 17 bd 20 98 1f 3d a4 40 a1 bd
       0.040475786 -0.037070975 0.038963437 -0.07873657
000090 e1 8c da 3d ad be 2b 3d c3 c8 e0 3d 05 90 98 3c
       0.10671402 0.04192989 0.10975792 0.018623361
0000a0 24 4e 12 bd 1c c5 a4 3b 5c 46 39 3d 8a cb d9 bd
       -0.035719052 0.00502838 0.045233116 -0.10634525
0000b0 58 49 f2 bc c9 a9 f1 3d fc 2e 3e 3d 9f ad c3 3d
       -0.029575989 0.11799962 0.046431527 0.095546
0000c0 34 52 26 3d 3b c7 3a bb 72 73 8d bd 04 0b 99 bd
       0.04060574 -0.0028500098 -0.06906785 -0.07472804
0000d0 90 3e 16 bc 5d a7 96 bc 86 ec 6d bc 76 21 b2 bd
       -0.0091701895 -0.018390352 -0.014521724 -0.086977884
0000e0 c0 57 63 3d 7c e3 08 bb bf 7d f1 bc 1b cc 83 3d
       0.055503607 -0.0020887544 -0.029478906 0.064354144
0000f0 48 c0 94 bd c0 ad 4d 3d e2 ab b0 3d b8 d4 ee 3d
       -0.07263237 0.05021453 0.08626534 0.11661667
000100 69 33 90 bc bb 3e 03 bd a1 93 13 3c c7 5a 27 3d
       -0.01760264 -0.032042246 0.009007365 0.040858056
000110 54 59 be 3d f3 31 c2 3d cf 88 60 3c ca 87 5a bd
       0.09294382 0.09482183 0.013704493 -0.053352155
000120 90 7c 94 3d e2 c7 4a 3c 95 f0 88 bd da c4 52 3b
       0.07250321 0.012376757 -0.066865124 0.003216079
000130 c5 79 d6 3d 99 73 b3 bd 2f a6 13 3d e5 07 e6 bc
       0.104724444 -0.08762283 0.036047157 -0.028079936
000140 0e 0e a4 3d aa 6d 59 3d e7 e9 43 bd 48 76 a0 bc
       0.08010493 0.0530831 -0.04783049 -0.01958765
000150 1e 20 0a 3d 05 a0 a5 3d 2b c3 cd bc fc 3a d3 3c
       0.033722036 0.08087162 -0.025117477 0.025784962
000160 c1 fa f1 3d 96 ea df 3d 99 88 b9 3d 6a e0 e0 bc
       0.11815406 0.109334156 0.09059257 -0.027450759
000170 29 78 25 bd 55 01 dd 3d 81 9f 4d 3d 7a c2 f7 3c
       -0.040397797 0.1079127 0.050200943 0.0302441
000180 2c 82 a2 bd 6a 6d d6 bc e3 44 00 3e ea 7a 49 bd
       -0.079349846 -0.02617522 0.12526278 -0.049189486
000190 41 94 9b bd 54 48 7b bc bf bb 96 bc 52 57 88 3d
       -0.075966366 -0.015337069 -0.018400071 0.0665728
0001a0 b4 fe 06 bd e6 5a b4 3a 34 58 a0 bc 94 24 93 bd
       -0.032957748 0.001376 -0.019573309 -0.07184711
0001b0 3a 03 5f 3d d4 28 b4 3d 4d ef 3d bb fb 7d 04 3c
       0.054446436 0.0879685 -0.0028981746 0.008086677
0001c0 83 30 5b bc 87 95 6e bd 2e 31 65 3c 67 25 ac bc
       -0.013378265 -0.05824807 0.013988776 -0.021013929
0001d0 3f e3 48 ba f5 11 fb 3c 08 8c 98 bd 95 80 03 bd
       -0.0007663257 0.030648211 -0.07448584 -0.032105047
0001e0 9b 2e 3c bd 9e dc b3 bc e4 6c eb 3d b3 49 d8 3c
       -0.045942884 -0.021955784 0.114953786 0.02640233
0001f0 0d 48 23 bd 0b f2 b7 bd ad 70 be bd 53 d3 02 3d
       -0.039863635 -0.08981713 -0.09298835 0.031939816

fc3.weight f4 [1, 128]
000000 0a 6e 46 3d d8 14 83 be 0b 97 7f 3d 90 86 96 bd
       0.048444785 -0.2560184 0.062399905 -0.073498845
000010 a6 d1 1d 3d 34 da 33 3d 7e a2 a3 bd ab e3 24 3e
       0.038530014 0.043909267 -0.07989977 0.16102473
000020 65 92 4c 3d a5 c9 15 be 8c a8 d5 bd 51 64 f1 bd
       0.0499443 -0.14627703 -0.104325384 -0.11786712
000030 ba eb b1 bd 2b a2 ac be 61 f2 8c be bb 9c af bd
       -0.086875394 -0.33717474 -0.2752867 -0.08574816
000040 e3 f9 37 be 3a 5b 79 3d 22 1f 40 3d b5 d0 37 3e
       -0.17966418 0.060878016 0.04690469 0.17950709
000050 72 f0 2e 3d 88 3b c8 3d 97 28 33 be 91 8c 92 bd
       0.042709775 0.0977698 -0.17495953 -0.07155717
000060 5f b2 0e 3e b6 44 8d bd 0f 24 86 3d 69 74 95 bd
       0.1393523 -0.06897871 0.065498464 -0.07297594
000070 76 e3 c4 bd db ab 4b be ed 62 21 3d de 17 bd 3d
       -0.09613697 -0.19889776 0.039400984 0.09233068
000080 6e 86 71 3d ec 8d 81 bd 10 9e 76 3d d5 9d 2a be
       0.058966093 -0.063258976 0.060209334 -0.1666177
000090 a6 0c 8e 3d 0b b9 57 3e db b0 66 3d d3 f8 0f be
       0.06936006 0.21066682 0.056321006 -0.14059763
0000a0 ec 17 5e bd 51 46 33 be fb 63 38 3e 28 94 a6 bd
       -0.054222032 -0.17507292 0.1800689 -0.08133727
0000b0 d6 d1 58 bd 2b e7 0b 3e 1f 00 4c 3d 74 8f 81 3d
       -0.05293449 0.13662402 0.049804803 0.0632619
0000c0 3d 2f de 3d 9d 24 0a be f7 5c 14 be 15 53 96 bd
       0.10848854 -0.1349053 -0.14488588 -0.073400654
0000d0 76 23 03 be 88 2c 2e be f2 80 12 be 85 2c 12 be
       -0.12806496 -0.17009175 -0.14307001 -0.14274795
0000e0 fe d0 76 3d e2 07 da bd 87 1e 59 be 0c 8c 8d 3d
       0.060257904 -0.10646035 -0.21203052 0.069114774
0000f0 55 06 02 be 4e e2 38 3d 74 e7 23 3d 3e 8f 55 3d
       -0.12697728 0.045137696 0.040015653 0.05213856
000100 b6 23 8a be 08 ec f7 bd 81 e8 86 bd 0b a0 45 3d
       -0.2698037 -0.12105566 -0.06587315 0.048248332
000110 73 23 7b 3d e7 c5 85 3d e4 bd 83 bd 2d 43 d2 bd
       0.061313104 0.065318875 -0.06432703 -0.10266719
000120 49 22 13 3e 7b dc 61 3d 8e c2 6a bd 7a b8 b4 bd
       0.14368547 0.055141907 -0.057314448 -0.088242486
000130 1b d0 3c 3d 9b 28 83 bd 54 4c 6c 3d e0 17 89 3d
       0.046096902 -0.06404229 0.05768998 0.06694007
000140 bf 3f 13 3d aa 49 6b 3d e6 2e 2a be c3 bc 12 3e
       0.035949465 0.0574433 -0.16619453 0.1432982
000150 d8 0f 7b 3d 1f ce f9 3c da ae 18 be 8a 11 24 bd
       0.061294407 0.030493794 -0.1491045 -0.04005579
000160 65 28 8c 3d 0a 6b 04 3d 13 82 ff 3d 2f 1a 3d bd
       0.06843642 0.032328643 0.124759816 -0.04616755
000170 60 ed 12 be 41 5c 93 3d 27 ba 24 3d e1 a7 38 3d
       -0.14348364 0.071953304 0.04021659 0.045081977
000180 9f fd 38 be fe ce a7 3d 20 ec e0 3d 9d 31 38 be
       -0.18065499 0.081937775 0.10982537 -0.17987676
000190 e3 ce eb bd 07 d9 44 be 61 ff 94 3d b8 54 33 3d
       -0.1151407 -0.19223414 0.07275272 0.043781966
0001a0 04 1a 99 3d 33 f3 fa bd 51 01 9a bd 31 86 3f be
       0.07475665 -0.12253418 -0.07519782 -0.18703534
0001b0 f2 38 5c 3d 4e 45 f9 3d da 47 32 3d 7f 88 37 be
       0.053765245 0.12171422 0.043525554 -0.17923163
0001c0 f3 d9 60 bd 44 3d 09 be ba ca 33 be 31 13 0d be
       -0.054895353 -0.13402277 -0.17557803 -0.13776852
0001d0 a8 47 57 be 4e 9f e6 3d 99 c8 30 bd 89 45 d2 3d
       -0.21023428 0.11260854 -0.043160055 0.10267169
0001e0 a3 43 63 be 45 65 09 be c8 e6 b6 3d a9 89 0e 3d
       -0.2219377 -0.13417538 0.08930737 0.03479925
0001f0 3a b6 1a bd 67 8a 20 be 21 42 e6 bd bc 69 29 bd
       -0.03777144 -0.15677796 -0.11243082 -0.0413606
